{"format": "graph-model", "generatedBy": "2.15.0", "convertedBy": "TensorFlow.js Converter v4.22.0", "signature": {"inputs": {"lstm_input": {"name": "lstm_input:0", "dtype": "DT_FLOAT", "tensorShape": {"dim": [{"size": "-1"}, {"size": "30"}, {"size": "1"}]}}}, "outputs": {"dense": {"name": "Identity:0", "dtype": "DT_FLOAT", "tensorShape": {"dim": [{"size": "-1"}, {"size": "1"}]}}}}, "modelTopology": {"node": [{"name": "StatefulPartitionedCall/sequential/lstm_1/PartitionedCall/TensorArrayV2_1/element_shape", "op": "Const", "attr": {"value": {"tensor": {"dtype": "DT_INT32", "tensorShape": {"dim": [{"size": "2"}]}}}, "dtype": {"type": "DT_INT32"}}}, {"name": "StatefulPartitionedCall/sequential/lstm_1/PartitionedCall/TensorArrayV2_1/num_elements", "op": "Const", "attr": {"value": {"tensor": {"dtype": "DT_INT32", "tensorShape": {}}}, "dtype": {"type": "DT_INT32"}}}, {"name": "StatefulPartitionedCall/sequential/lstm_1/zeros_1/packed/1", "op": "Const", "attr": {"value": {"tensor": {"dtype": "DT_INT32", "tensorShape": {}}}, "dtype": {"type": "DT_INT32"}}}, {"name": "StatefulPartitionedCall/sequential/lstm_1/zeros_1/Const", "op": "Const", "attr": {"value": {"tensor": {"dtype": "DT_FLOAT", "tensorShape": {}}}, "dtype": {"type": "DT_FLOAT"}}}, {"name": "StatefulPartitionedCall/sequential/lstm_1/PartitionedCall/TensorArrayUnstack/TensorListFromTensor/element_shape", "op": "Const", "attr": {"value": {"tensor": {"dtype": "DT_INT32", "tensorShape": {"dim": [{"size": "2"}]}}}, "dtype": {"type": "DT_INT32"}}}, {"name": "StatefulPartitionedCall/sequential/lstm_1/Read/ReadVariableOp", "op": "Const", "attr": {"value": {"tensor": {"dtype": "DT_FLOAT", "tensorShape": {"dim": [{"size": "64"}, {"size": "128"}]}}}, "dtype": {"type": "DT_FLOAT"}}}, {"name": "StatefulPartitionedCall/sequential/lstm/PartitionedCall/transpose_1/perm", "op": "Const", "attr": {"value": {"tensor": {"dtype": "DT_INT32", "tensorShape": {"dim": [{"size": "3"}]}}}, "dtype": {"type": "DT_INT32"}}}, {"name": "StatefulPartitionedCall/sequential/lstm_1/strided_slice/stack", "op": "Const", "attr": {"value": {"tensor": {"dtype": "DT_INT32", "tensorShape": {"dim": [{"size": "1"}]}}}, "dtype": {"type": "DT_INT32"}}}, {"name": "StatefulPartitionedCall/sequential/lstm_1/strided_slice/stack_1", "op": "Const", "attr": {"value": {"tensor": {"dtype": "DT_INT32", "tensorShape": {"dim": [{"size": "1"}]}}}, "dtype": {"type": "DT_INT32"}}}, {"name": "StatefulPartitionedCall/sequential/lstm_1/strided_slice/stack_2", "op": "Const", "attr": {"value": {"tensor": {"dtype": "DT_INT32", "tensorShape": {"dim": [{"size": "1"}]}}}, "dtype": {"type": "DT_INT32"}}}, {"name": "StatefulPartitionedCall/sequential/lstm_1/zeros/packed/1", "op": "Const", "attr": {"value": {"tensor": {"dtype": "DT_INT32", "tensorShape": {}}}, "dtype": {"type": "DT_INT32"}}}, {"name": "StatefulPartitionedCall/sequential/lstm_1/zeros/Const", "op": "Const", "attr": {"value": {"tensor": {"dtype": "DT_FLOAT", "tensorShape": {}}}, "dtype": {"type": "DT_FLOAT"}}}, {"name": "StatefulPartitionedCall/sequential/lstm_1/Read_1/ReadVariableOp", "op": "Const", "attr": {"value": {"tensor": {"dtype": "DT_FLOAT", "tensorShape": {"dim": [{"size": "32"}, {"size": "128"}]}}}, "dtype": {"type": "DT_FLOAT"}}}, {"name": "StatefulPartitionedCall/sequential/lstm_1/Read_2/ReadVariableOp", "op": "Const", "attr": {"value": {"tensor": {"dtype": "DT_FLOAT", "tensorShape": {"dim": [{"size": "128"}]}}}, "dtype": {"type": "DT_FLOAT"}}}, {"name": "StatefulPartitionedCall/sequential/lstm_1/PartitionedCall/time", "op": "Const", "attr": {"value": {"tensor": {"dtype": "DT_INT32", "tensorShape": {}}}, "dtype": {"type": "DT_INT32"}}}, {"name": "StatefulPartitionedCall/sequential/lstm/PartitionedCall/TensorArrayV2_1/element_shape", "op": "Const", "attr": {"value": {"tensor": {"dtype": "DT_INT32", "tensorShape": {"dim": [{"size": "2"}]}}}, "dtype": {"type": "DT_INT32"}}}, {"name": "StatefulPartitionedCall/sequential/lstm/zeros_1/packed/1", "op": "Const", "attr": {"value": {"tensor": {"dtype": "DT_INT32", "tensorShape": {}}}, "dtype": {"type": "DT_INT32"}}}, {"name": "StatefulPartitionedCall/sequential/lstm/zeros_1/Const", "op": "Const", "attr": {"value": {"tensor": {"dtype": "DT_FLOAT", "tensorShape": {}}}, "dtype": {"type": "DT_FLOAT"}}}, {"name": "StatefulPartitionedCall/sequential/lstm/PartitionedCall/TensorArrayUnstack/TensorListFromTensor/element_shape", "op": "Const", "attr": {"value": {"tensor": {"dtype": "DT_INT32", "tensorShape": {"dim": [{"size": "2"}]}}}, "dtype": {"type": "DT_INT32"}}}, {"name": "StatefulPartitionedCall/sequential/lstm/Read/ReadVariableOp", "op": "Const", "attr": {"value": {"tensor": {"dtype": "DT_FLOAT", "tensorShape": {"dim": [{"size": "1"}, {"size": "256"}]}}}, "dtype": {"type": "DT_FLOAT"}}}, {"name": "StatefulPartitionedCall/sequential/lstm/strided_slice/stack", "op": "Const", "attr": {"value": {"tensor": {"dtype": "DT_INT32", "tensorShape": {"dim": [{"size": "1"}]}}}, "dtype": {"type": "DT_INT32"}}}, {"name": "StatefulPartitionedCall/sequential/lstm/strided_slice/stack_1", "op": "Const", "attr": {"value": {"tensor": {"dtype": "DT_INT32", "tensorShape": {"dim": [{"size": "1"}]}}}, "dtype": {"type": "DT_INT32"}}}, {"name": "StatefulPartitionedCall/sequential/lstm/strided_slice/stack_2", "op": "Const", "attr": {"value": {"tensor": {"dtype": "DT_INT32", "tensorShape": {"dim": [{"size": "1"}]}}}, "dtype": {"type": "DT_INT32"}}}, {"name": "StatefulPartitionedCall/sequential/lstm/zeros/packed/1", "op": "Const", "attr": {"value": {"tensor": {"dtype": "DT_INT32", "tensorShape": {}}}, "dtype": {"type": "DT_INT32"}}}, {"name": "StatefulPartitionedCall/sequential/lstm/zeros/Const", "op": "Const", "attr": {"value": {"tensor": {"dtype": "DT_FLOAT", "tensorShape": {}}}, "dtype": {"type": "DT_FLOAT"}}}, {"name": "StatefulPartitionedCall/sequential/lstm/Read_1/ReadVariableOp", "op": "Const", "attr": {"value": {"tensor": {"dtype": "DT_FLOAT", "tensorShape": {"dim": [{"size": "64"}, {"size": "256"}]}}}, "dtype": {"type": "DT_FLOAT"}}}, {"name": "StatefulPartitionedCall/sequential/lstm/Read_2/ReadVariableOp", "op": "Const", "attr": {"value": {"tensor": {"dtype": "DT_FLOAT", "tensorShape": {"dim": [{"size": "256"}]}}}, "dtype": {"type": "DT_FLOAT"}}}, {"name": "StatefulPartitionedCall/sequential/lstm/PartitionedCall/time", "op": "Const", "attr": {"value": {"tensor": {"dtype": "DT_INT32", "tensorShape": {}}}, "dtype": {"type": "DT_INT32"}}}, {"name": "StatefulPartitionedCall/sequential/lstm/PartitionedCall/transpose/perm", "op": "Const", "attr": {"value": {"tensor": {"dtype": "DT_INT32", "tensorShape": {"dim": [{"size": "3"}]}}}, "dtype": {"type": "DT_INT32"}}}, {"name": "StatefulPartitionedCall/sequential/lstm/PartitionedCall/strided_slice/stack", "op": "Const", "attr": {"value": {"tensor": {"dtype": "DT_INT32", "tensorShape": {"dim": [{"size": "1"}]}}}, "dtype": {"type": "DT_INT32"}}}, {"name": "StatefulPartitionedCall/sequential/lstm/PartitionedCall/strided_slice/stack_1", "op": "Const", "attr": {"value": {"tensor": {"dtype": "DT_INT32", "tensorShape": {"dim": [{"size": "1"}]}}}, "dtype": {"type": "DT_INT32"}}}, {"name": "StatefulPartitionedCall/sequential/lstm/PartitionedCall/strided_slice/stack_2", "op": "Const", "attr": {"value": {"tensor": {"dtype": "DT_INT32", "tensorShape": {"dim": [{"size": "1"}]}}}, "dtype": {"type": "DT_INT32"}}}, {"name": "StatefulPartitionedCall/sequential/lstm/PartitionedCall/while/loop_counter", "op": "Const", "attr": {"value": {"tensor": {"dtype": "DT_INT32", "tensorShape": {}}}, "dtype": {"type": "DT_INT32"}}}, {"name": "StatefulPartitionedCall/sequential/lstm/PartitionedCall/TensorArrayV2Stack/TensorListStack/element_shape", "op": "Const", "attr": {"value": {"tensor": {"dtype": "DT_INT32", "tensorShape": {"dim": [{"size": "2"}]}}}, "dtype": {"type": "DT_INT32"}}}, {"name": "StatefulPartitionedCall/sequential/lstm_1/PartitionedCall/strided_slice/stack", "op": "Const", "attr": {"value": {"tensor": {"dtype": "DT_INT32", "tensorShape": {"dim": [{"size": "1"}]}}}, "dtype": {"type": "DT_INT32"}}}, {"name": "StatefulPartitionedCall/sequential/lstm_1/PartitionedCall/strided_slice/stack_1", "op": "Const", "attr": {"value": {"tensor": {"dtype": "DT_INT32", "tensorShape": {"dim": [{"size": "1"}]}}}, "dtype": {"type": "DT_INT32"}}}, {"name": "StatefulPartitionedCall/sequential/lstm_1/PartitionedCall/strided_slice/stack_2", "op": "Const", "attr": {"value": {"tensor": {"dtype": "DT_INT32", "tensorShape": {"dim": [{"size": "1"}]}}}, "dtype": {"type": "DT_INT32"}}}, {"name": "StatefulPartitionedCall/sequential/lstm_1/PartitionedCall/while/loop_counter", "op": "Const", "attr": {"value": {"tensor": {"dtype": "DT_INT32", "tensorShape": {}}}, "dtype": {"type": "DT_INT32"}}}, {"name": "StatefulPartitionedCall/sequential/lstm_1/PartitionedCall/TensorArrayV2Stack/TensorListStack/element_shape", "op": "Const", "attr": {"value": {"tensor": {"dtype": "DT_INT32", "tensorShape": {"dim": [{"size": "2"}]}}}, "dtype": {"type": "DT_INT32"}}}, {"name": "StatefulPartitionedCall/sequential/lstm_1/PartitionedCall/strided_slice_2/stack", "op": "Const", "attr": {"value": {"tensor": {"dtype": "DT_INT32", "tensorShape": {"dim": [{"size": "1"}]}}}, "dtype": {"type": "DT_INT32"}}}, {"name": "StatefulPartitionedCall/sequential/lstm_1/PartitionedCall/strided_slice_2/stack_1", "op": "Const", "attr": {"value": {"tensor": {"dtype": "DT_INT32", "tensorShape": {"dim": [{"size": "1"}]}}}, "dtype": {"type": "DT_INT32"}}}, {"name": "StatefulPartitionedCall/sequential/lstm_1/PartitionedCall/strided_slice_2/stack_2", "op": "Const", "attr": {"value": {"tensor": {"dtype": "DT_INT32", "tensorShape": {"dim": [{"size": "1"}]}}}, "dtype": {"type": "DT_INT32"}}}, {"name": "StatefulPartitionedCall/sequential/dense/MatMul/ReadVariableOp", "op": "Const", "attr": {"value": {"tensor": {"dtype": "DT_FLOAT", "tensorShape": {"dim": [{"size": "32"}, {"size": "1"}]}}}, "dtype": {"type": "DT_FLOAT"}}}, {"name": "StatefulPartitionedCall/sequential/dense/BiasAdd/ReadVariableOp", "op": "Const", "attr": {"value": {"tensor": {"dtype": "DT_FLOAT", "tensorShape": {"dim": [{"size": "1"}]}}}, "dtype": {"type": "DT_FLOAT"}}}, {"name": "lstm_input", "op": "Placeholder", "attr": {"shape": {"shape": {"dim": [{"size": "-1"}, {"size": "30"}, {"size": "1"}]}}, "dtype": {"type": "DT_FLOAT"}}}, {"name": "StatefulPartitionedCall/sequential/lstm_1/PartitionedCall/TensorArrayV2_1", "op": "TensorListReserve", "input": ["StatefulPartitionedCall/sequential/lstm_1/PartitionedCall/TensorArrayV2_1/element_shape", "StatefulPartitionedCall/sequential/lstm_1/PartitionedCall/TensorArrayV2_1/num_elements"], "attr": {"shape_type": {"type": "DT_INT32"}, "element_dtype": {"type": "DT_FLOAT"}}, "experimentalType": {"typeId": "TFT_PRODUCT", "args": [{"typeId": "TFT_ARRAY", "args": [{"typeId": "TFT_TENSOR", "args": [{"typeId": "TFT_FLOAT"}]}]}]}}, {"name": "StatefulPartitionedCall/sequential/lstm_1/PartitionedCall/while/enter/_103", "op": "Enter", "input": ["StatefulPartitionedCall/sequential/lstm_1/Read/ReadVariableOp"], "attr": {"is_constant": {"b": false}, "frame_name": {"s": "U3RhdGVmdWxQYXJ0aXRpb25lZENhbGwvc2VxdWVudGlhbC9sc3RtXzEvUGFydGl0aW9uZWRDYWxsL3doaWxl"}, "T": {"type": "DT_FLOAT"}, "parallel_iterations": {"i": "32"}}}, {"name": "StatefulPartitionedCall/sequential/lstm_1/PartitionedCall/while/enter/_104", "op": "Enter", "input": ["StatefulPartitionedCall/sequential/lstm_1/Read_1/ReadVariableOp"], "attr": {"is_constant": {"b": false}, "frame_name": {"s": "U3RhdGVmdWxQYXJ0aXRpb25lZENhbGwvc2VxdWVudGlhbC9sc3RtXzEvUGFydGl0aW9uZWRDYWxsL3doaWxl"}, "T": {"type": "DT_FLOAT"}, "parallel_iterations": {"i": "32"}}}, {"name": "StatefulPartitionedCall/sequential/lstm_1/PartitionedCall/while/enter/_105", "op": "Enter", "input": ["StatefulPartitionedCall/sequential/lstm_1/Read_2/ReadVariableOp"], "attr": {"is_constant": {"b": false}, "frame_name": {"s": "U3RhdGVmdWxQYXJ0aXRpb25lZENhbGwvc2VxdWVudGlhbC9sc3RtXzEvUGFydGl0aW9uZWRDYWxsL3doaWxl"}, "T": {"type": "DT_FLOAT"}, "parallel_iterations": {"i": "32"}}}, {"name": "StatefulPartitionedCall/sequential/lstm_1/PartitionedCall/while/enter/_97", "op": "Enter", "input": ["StatefulPartitionedCall/sequential/lstm_1/PartitionedCall/time"], "attr": {"is_constant": {"b": false}, "frame_name": {"s": "U3RhdGVmdWxQYXJ0aXRpb25lZENhbGwvc2VxdWVudGlhbC9sc3RtXzEvUGFydGl0aW9uZWRDYWxsL3doaWxl"}, "T": {"type": "DT_INT32"}, "parallel_iterations": {"i": "32"}}}, {"name": "StatefulPartitionedCall/sequential/lstm/PartitionedCall/while/enter/_43", "op": "Enter", "input": ["StatefulPartitionedCall/sequential/lstm/Read/ReadVariableOp"], "attr": {"is_constant": {"b": false}, "frame_name": {"s": "U3RhdGVmdWxQYXJ0aXRpb25lZENhbGwvc2VxdWVudGlhbC9sc3RtL1BhcnRpdGlvbmVkQ2FsbC93aGlsZQ=="}, "T": {"type": "DT_FLOAT"}, "parallel_iterations": {"i": "32"}}}, {"name": "StatefulPartitionedCall/sequential/lstm/PartitionedCall/while/enter/_44", "op": "Enter", "input": ["StatefulPartitionedCall/sequential/lstm/Read_1/ReadVariableOp"], "attr": {"is_constant": {"b": false}, "frame_name": {"s": "U3RhdGVmdWxQYXJ0aXRpb25lZENhbGwvc2VxdWVudGlhbC9sc3RtL1BhcnRpdGlvbmVkQ2FsbC93aGlsZQ=="}, "T": {"type": "DT_FLOAT"}, "parallel_iterations": {"i": "32"}}}, {"name": "StatefulPartitionedCall/sequential/lstm/PartitionedCall/while/enter/_45", "op": "Enter", "input": ["StatefulPartitionedCall/sequential/lstm/Read_2/ReadVariableOp"], "attr": {"is_constant": {"b": false}, "frame_name": {"s": "U3RhdGVmdWxQYXJ0aXRpb25lZENhbGwvc2VxdWVudGlhbC9sc3RtL1BhcnRpdGlvbmVkQ2FsbC93aGlsZQ=="}, "T": {"type": "DT_FLOAT"}, "parallel_iterations": {"i": "32"}}}, {"name": "StatefulPartitionedCall/sequential/lstm/PartitionedCall/while/enter/_37", "op": "Enter", "input": ["StatefulPartitionedCall/sequential/lstm/PartitionedCall/time"], "attr": {"is_constant": {"b": false}, "frame_name": {"s": "U3RhdGVmdWxQYXJ0aXRpb25lZENhbGwvc2VxdWVudGlhbC9sc3RtL1BhcnRpdGlvbmVkQ2FsbC93aGlsZQ=="}, "T": {"type": "DT_INT32"}, "parallel_iterations": {"i": "32"}}}, {"name": "StatefulPartitionedCall/sequential/lstm/PartitionedCall/while/enter/_35", "op": "Enter", "input": ["StatefulPartitionedCall/sequential/lstm/PartitionedCall/while/loop_counter"], "attr": {"is_constant": {"b": false}, "frame_name": {"s": "U3RhdGVmdWxQYXJ0aXRpb25lZENhbGwvc2VxdWVudGlhbC9sc3RtL1BhcnRpdGlvbmVkQ2FsbC93aGlsZQ=="}, "T": {"type": "DT_INT32"}, "parallel_iterations": {"i": "32"}}}, {"name": "StatefulPartitionedCall/sequential/lstm_1/PartitionedCall/while/enter/_95", "op": "Enter", "input": ["StatefulPartitionedCall/sequential/lstm_1/PartitionedCall/while/loop_counter"], "attr": {"is_constant": {"b": false}, "frame_name": {"s": "U3RhdGVmdWxQYXJ0aXRpb25lZENhbGwvc2VxdWVudGlhbC9sc3RtXzEvUGFydGl0aW9uZWRDYWxsL3doaWxl"}, "T": {"type": "DT_INT32"}, "parallel_iterations": {"i": "32"}}}, {"name": "StatefulPartitionedCall/sequential/lstm/Shape", "op": "Shape", "input": ["lstm_input"], "attr": {"T": {"type": "DT_FLOAT"}, "out_type": {"type": "DT_INT32"}}, "experimentalType": {"typeId": "TFT_PRODUCT", "args": [{"typeId": "TFT_SHAPE_TENSOR", "args": [{"typeId": "TFT_INT32"}]}]}}, {"name": "StatefulPartitionedCall/sequential/lstm/PartitionedCall/transpose", "op": "Transpose", "input": ["lstm_input", "StatefulPartitionedCall/sequential/lstm/PartitionedCall/transpose/perm"], "attr": {"Tperm": {"type": "DT_INT32"}, "_input_shapes": {"list": {"shape": [{"dim": [{"size": "-2"}, {"size": "-7"}, {"size": "1"}]}, {"dim": [{"size": "3"}]}]}}, "T": {"type": "DT_FLOAT"}}}, {"name": "StatefulPartitionedCall/sequential/lstm_1/PartitionedCall/while/enter/_98", "op": "Enter", "input": ["StatefulPartitionedCall/sequential/lstm_1/PartitionedCall/TensorArrayV2_1"], "attr": {"is_constant": {"b": false}, "frame_name": {"s": "U3RhdGVmdWxQYXJ0aXRpb25lZENhbGwvc2VxdWVudGlhbC9sc3RtXzEvUGFydGl0aW9uZWRDYWxsL3doaWxl"}, "T": {"type": "DT_VARIANT"}, "parallel_iterations": {"i": "32"}}}, {"name": "StatefulPartitionedCall/sequential/lstm_1/PartitionedCall/while/merge/_114", "op": "Merge", "input": ["StatefulPartitionedCall/sequential/lstm_1/PartitionedCall/while/enter/_103", "StatefulPartitionedCall/sequential/lstm_1/PartitionedCall/while/next_iteration/_150"], "attr": {"N": {"i": "2"}, "T": {"type": "DT_FLOAT"}}}, {"name": "StatefulPartitionedCall/sequential/lstm_1/PartitionedCall/while/merge/_115", "op": "Merge", "input": ["StatefulPartitionedCall/sequential/lstm_1/PartitionedCall/while/enter/_104", "StatefulPartitionedCall/sequential/lstm_1/PartitionedCall/while/next_iteration/_151"], "attr": {"N": {"i": "2"}, "T": {"type": "DT_FLOAT"}}}, {"name": "StatefulPartitionedCall/sequential/lstm_1/PartitionedCall/while/merge/_116", "op": "Merge", "input": ["StatefulPartitionedCall/sequential/lstm_1/PartitionedCall/while/enter/_105", "StatefulPartitionedCall/sequential/lstm_1/PartitionedCall/while/next_iteration/_152"], "attr": {"N": {"i": "2"}, "T": {"type": "DT_FLOAT"}}}, {"name": "StatefulPartitionedCall/sequential/lstm_1/PartitionedCall/while/merge/_108", "op": "Merge", "input": ["StatefulPartitionedCall/sequential/lstm_1/PartitionedCall/while/enter/_97", "StatefulPartitionedCall/sequential/lstm_1/PartitionedCall/while/next_iteration/_144"], "attr": {"N": {"i": "2"}, "T": {"type": "DT_INT32"}}}, {"name": "StatefulPartitionedCall/sequential/lstm/PartitionedCall/while/merge/_54", "op": "Merge", "input": ["StatefulPartitionedCall/sequential/lstm/PartitionedCall/while/enter/_43", "StatefulPartitionedCall/sequential/lstm/PartitionedCall/while/next_iteration/_90"], "attr": {"N": {"i": "2"}, "T": {"type": "DT_FLOAT"}}}, {"name": "StatefulPartitionedCall/sequential/lstm/PartitionedCall/while/merge/_55", "op": "Merge", "input": ["StatefulPartitionedCall/sequential/lstm/PartitionedCall/while/enter/_44", "StatefulPartitionedCall/sequential/lstm/PartitionedCall/while/next_iteration/_91"], "attr": {"N": {"i": "2"}, "T": {"type": "DT_FLOAT"}}}, {"name": "StatefulPartitionedCall/sequential/lstm/PartitionedCall/while/merge/_56", "op": "Merge", "input": ["StatefulPartitionedCall/sequential/lstm/PartitionedCall/while/enter/_45", "StatefulPartitionedCall/sequential/lstm/PartitionedCall/while/next_iteration/_92"], "attr": {"N": {"i": "2"}, "T": {"type": "DT_FLOAT"}}}, {"name": "StatefulPartitionedCall/sequential/lstm/PartitionedCall/while/merge/_48", "op": "Merge", "input": ["StatefulPartitionedCall/sequential/lstm/PartitionedCall/while/enter/_37", "StatefulPartitionedCall/sequential/lstm/PartitionedCall/while/next_iteration/_84"], "attr": {"N": {"i": "2"}, "T": {"type": "DT_INT32"}}}, {"name": "StatefulPartitionedCall/sequential/lstm/PartitionedCall/while/merge/_46", "op": "Merge", "input": ["StatefulPartitionedCall/sequential/lstm/PartitionedCall/while/enter/_35", "StatefulPartitionedCall/sequential/lstm/PartitionedCall/while/next_iteration/_82"], "attr": {"N": {"i": "2"}, "_has_manual_control_dependencies": {"b": true}, "T": {"type": "DT_INT32"}}}, {"name": "StatefulPartitionedCall/sequential/lstm_1/PartitionedCall/while/merge/_106", "op": "Merge", "input": ["StatefulPartitionedCall/sequential/lstm_1/PartitionedCall/while/enter/_95", "StatefulPartitionedCall/sequential/lstm_1/PartitionedCall/while/next_iteration/_142"], "attr": {"N": {"i": "2"}, "_has_manual_control_dependencies": {"b": true}, "T": {"type": "DT_INT32"}}}, {"name": "StatefulPartitionedCall/sequential/lstm/strided_slice", "op": "StridedSlice", "input": ["StatefulPartitionedCall/sequential/lstm/Shape", "StatefulPartitionedCall/sequential/lstm/strided_slice/stack", "StatefulPartitionedCall/sequential/lstm/strided_slice/stack_1", "StatefulPartitionedCall/sequential/lstm/strided_slice/stack_2"], "attr": {"shrink_axis_mask": {"i": "1"}, "Index": {"type": "DT_INT32"}, "new_axis_mask": {"i": "0"}, "begin_mask": {"i": "0"}, "end_mask": {"i": "0"}, "T": {"type": "DT_INT32"}, "ellipsis_mask": {"i": "0"}}}, {"name": "StatefulPartitionedCall/sequential/lstm/PartitionedCall/TensorArrayUnstack/TensorListFromTensor", "op": "TensorListFromTensor", "input": ["StatefulPartitionedCall/sequential/lstm/PartitionedCall/transpose", "StatefulPartitionedCall/sequential/lstm/PartitionedCall/TensorArrayUnstack/TensorListFromTensor/element_shape"], "attr": {"shape_type": {"type": "DT_INT32"}, "element_dtype": {"type": "DT_FLOAT"}}, "experimentalType": {"typeId": "TFT_PRODUCT", "args": [{"typeId": "TFT_ARRAY", "args": [{"typeId": "TFT_TENSOR", "args": [{"typeId": "TFT_FLOAT"}]}]}]}}, {"name": "StatefulPartitionedCall/sequential/lstm/PartitionedCall/Shape", "op": "Shape", "input": ["StatefulPartitionedCall/sequential/lstm/PartitionedCall/transpose"], "attr": {"T": {"type": "DT_FLOAT"}, "out_type": {"type": "DT_INT32"}}, "experimentalType": {"typeId": "TFT_PRODUCT", "args": [{"typeId": "TFT_SHAPE_TENSOR", "args": [{"typeId": "TFT_INT32"}]}]}}, {"name": "StatefulPartitionedCall/sequential/lstm_1/PartitionedCall/while/merge/_109", "op": "Merge", "input": ["StatefulPartitionedCall/sequential/lstm_1/PartitionedCall/while/enter/_98", "StatefulPartitionedCall/sequential/lstm_1/PartitionedCall/while/next_iteration/_145"], "attr": {"N": {"i": "2"}, "T": {"type": "DT_VARIANT"}}}, {"name": "StatefulPartitionedCall/sequential/lstm/zeros_1/packed", "op": "Pack", "input": ["StatefulPartitionedCall/sequential/lstm/strided_slice", "StatefulPartitionedCall/sequential/lstm/zeros_1/packed/1"], "attr": {"N": {"i": "2"}, "axis": {"i": "0"}, "T": {"type": "DT_INT32"}}}, {"name": "StatefulPartitionedCall/sequential/lstm/zeros/packed", "op": "Pack", "input": ["StatefulPartitionedCall/sequential/lstm/strided_slice", "StatefulPartitionedCall/sequential/lstm/zeros/packed/1"], "attr": {"N": {"i": "2"}, "axis": {"i": "0"}, "T": {"type": "DT_INT32"}}}, {"name": "StatefulPartitionedCall/sequential/lstm/PartitionedCall/while/enter/_42", "op": "Enter", "input": ["StatefulPartitionedCall/sequential/lstm/PartitionedCall/TensorArrayUnstack/TensorListFromTensor"], "attr": {"is_constant": {"b": false}, "frame_name": {"s": "U3RhdGVmdWxQYXJ0aXRpb25lZENhbGwvc2VxdWVudGlhbC9sc3RtL1BhcnRpdGlvbmVkQ2FsbC93aGlsZQ=="}, "T": {"type": "DT_VARIANT"}, "parallel_iterations": {"i": "32"}}}, {"name": "StatefulPartitionedCall/sequential/lstm/PartitionedCall/strided_slice", "op": "StridedSlice", "input": ["StatefulPartitionedCall/sequential/lstm/PartitionedCall/Shape", "StatefulPartitionedCall/sequential/lstm/PartitionedCall/strided_slice/stack", "StatefulPartitionedCall/sequential/lstm/PartitionedCall/strided_slice/stack_1", "StatefulPartitionedCall/sequential/lstm/PartitionedCall/strided_slice/stack_2"], "attr": {"shrink_axis_mask": {"i": "1"}, "Index": {"type": "DT_INT32"}, "new_axis_mask": {"i": "0"}, "begin_mask": {"i": "0"}, "end_mask": {"i": "0"}, "T": {"type": "DT_INT32"}, "ellipsis_mask": {"i": "0"}}}, {"name": "StatefulPartitionedCall/sequential/lstm/zeros_1", "op": "Fill", "input": ["StatefulPartitionedCall/sequential/lstm/zeros_1/packed", "StatefulPartitionedCall/sequential/lstm/zeros_1/Const"], "attr": {"T": {"type": "DT_FLOAT"}, "index_type": {"type": "DT_INT32"}}}, {"name": "StatefulPartitionedCall/sequential/lstm/zeros", "op": "Fill", "input": ["StatefulPartitionedCall/sequential/lstm/zeros/packed", "StatefulPartitionedCall/sequential/lstm/zeros/Const"], "attr": {"T": {"type": "DT_FLOAT"}, "index_type": {"type": "DT_INT32"}}}, {"name": "StatefulPartitionedCall/sequential/lstm/PartitionedCall/while/merge/_53", "op": "Merge", "input": ["StatefulPartitionedCall/sequential/lstm/PartitionedCall/while/enter/_42", "StatefulPartitionedCall/sequential/lstm/PartitionedCall/while/next_iteration/_89"], "attr": {"N": {"i": "2"}, "T": {"type": "DT_VARIANT"}}}, {"name": "StatefulPartitionedCall/sequential/lstm/PartitionedCall/TensorArrayV2_1", "op": "TensorListReserve", "input": ["StatefulPartitionedCall/sequential/lstm/PartitionedCall/TensorArrayV2_1/element_shape", "StatefulPartitionedCall/sequential/lstm/PartitionedCall/strided_slice"], "attr": {"shape_type": {"type": "DT_INT32"}, "element_dtype": {"type": "DT_FLOAT"}}, "experimentalType": {"typeId": "TFT_PRODUCT", "args": [{"typeId": "TFT_ARRAY", "args": [{"typeId": "TFT_TENSOR", "args": [{"typeId": "TFT_FLOAT"}]}]}]}}, {"name": "StatefulPartitionedCall/sequential/lstm/PartitionedCall/while/enter/_41", "op": "Enter", "input": ["StatefulPartitionedCall/sequential/lstm/PartitionedCall/strided_slice"], "attr": {"is_constant": {"b": false}, "frame_name": {"s": "U3RhdGVmdWxQYXJ0aXRpb25lZENhbGwvc2VxdWVudGlhbC9sc3RtL1BhcnRpdGlvbmVkQ2FsbC93aGlsZQ=="}, "T": {"type": "DT_INT32"}, "parallel_iterations": {"i": "32"}}}, {"name": "StatefulPartitionedCall/sequential/lstm/PartitionedCall/while/enter/_40", "op": "Enter", "input": ["StatefulPartitionedCall/sequential/lstm/zeros_1"], "attr": {"is_constant": {"b": false}, "frame_name": {"s": "U3RhdGVmdWxQYXJ0aXRpb25lZENhbGwvc2VxdWVudGlhbC9sc3RtL1BhcnRpdGlvbmVkQ2FsbC93aGlsZQ=="}, "T": {"type": "DT_FLOAT"}, "parallel_iterations": {"i": "32"}}}, {"name": "StatefulPartitionedCall/sequential/lstm/PartitionedCall/while/enter/_39", "op": "Enter", "input": ["StatefulPartitionedCall/sequential/lstm/zeros"], "attr": {"is_constant": {"b": false}, "frame_name": {"s": "U3RhdGVmdWxQYXJ0aXRpb25lZENhbGwvc2VxdWVudGlhbC9sc3RtL1BhcnRpdGlvbmVkQ2FsbC93aGlsZQ=="}, "T": {"type": "DT_FLOAT"}, "parallel_iterations": {"i": "32"}}}, {"name": "StatefulPartitionedCall/sequential/lstm/PartitionedCall/while/enter/_38", "op": "Enter", "input": ["StatefulPartitionedCall/sequential/lstm/PartitionedCall/TensorArrayV2_1"], "attr": {"is_constant": {"b": false}, "frame_name": {"s": "U3RhdGVmdWxQYXJ0aXRpb25lZENhbGwvc2VxdWVudGlhbC9sc3RtL1BhcnRpdGlvbmVkQ2FsbC93aGlsZQ=="}, "T": {"type": "DT_VARIANT"}, "parallel_iterations": {"i": "32"}}}, {"name": "StatefulPartitionedCall/sequential/lstm/PartitionedCall/while/merge/_52", "op": "Merge", "input": ["StatefulPartitionedCall/sequential/lstm/PartitionedCall/while/enter/_41", "StatefulPartitionedCall/sequential/lstm/PartitionedCall/while/next_iteration/_88"], "attr": {"N": {"i": "2"}, "T": {"type": "DT_INT32"}}}, {"name": "StatefulPartitionedCall/sequential/lstm/PartitionedCall/while/merge/_51", "op": "Merge", "input": ["StatefulPartitionedCall/sequential/lstm/PartitionedCall/while/enter/_40", "StatefulPartitionedCall/sequential/lstm/PartitionedCall/while/next_iteration/_87"], "attr": {"N": {"i": "2"}, "T": {"type": "DT_FLOAT"}}}, {"name": "StatefulPartitionedCall/sequential/lstm/PartitionedCall/while/merge/_50", "op": "Merge", "input": ["StatefulPartitionedCall/sequential/lstm/PartitionedCall/while/enter/_39", "StatefulPartitionedCall/sequential/lstm/PartitionedCall/while/next_iteration/_86"], "attr": {"N": {"i": "2"}, "T": {"type": "DT_FLOAT"}}}, {"name": "StatefulPartitionedCall/sequential/lstm/PartitionedCall/while/merge/_49", "op": "Merge", "input": ["StatefulPartitionedCall/sequential/lstm/PartitionedCall/while/enter/_38", "StatefulPartitionedCall/sequential/lstm/PartitionedCall/while/next_iteration/_85"], "attr": {"N": {"i": "2"}, "T": {"type": "DT_VARIANT"}}}, {"name": "StatefulPartitionedCall/sequential/lstm/PartitionedCall/while/cond/_33/while/Less", "op": "Less", "input": ["StatefulPartitionedCall/sequential/lstm/PartitionedCall/while/merge/_48", "StatefulPartitionedCall/sequential/lstm/PartitionedCall/while/merge/_52", "^StatefulPartitionedCall/sequential/lstm/PartitionedCall/while/merge/_46"], "attr": {"T": {"type": "DT_INT32"}}}, {"name": "StatefulPartitionedCall/sequential/lstm/PartitionedCall/while/LoopCond/_57", "op": "LoopCond", "input": ["StatefulPartitionedCall/sequential/lstm/PartitionedCall/while/cond/_33/while/Less"]}, {"name": "StatefulPartitionedCall/sequential/lstm/PartitionedCall/while/Func/StatefulPartitionedCall/sequential/lstm/PartitionedCall/input/_13_switch/_63", "op": "Switch", "input": ["StatefulPartitionedCall/sequential/lstm/PartitionedCall/while/merge/_51", "StatefulPartitionedCall/sequential/lstm/PartitionedCall/while/LoopCond/_57"], "attr": {"T": {"type": "DT_FLOAT"}}}, {"name": "StatefulPartitionedCall/sequential/lstm/PartitionedCall/while/StatefulPartitionedCall/sequential/lstm/PartitionedCall/TensorArrayUnstack/TensorListFromTensor_switch/_65", "op": "Switch", "input": ["StatefulPartitionedCall/sequential/lstm/PartitionedCall/while/merge/_53", "StatefulPartitionedCall/sequential/lstm/PartitionedCall/while/LoopCond/_57"], "attr": {"T": {"type": "DT_VARIANT"}}}, {"name": "StatefulPartitionedCall/sequential/lstm/PartitionedCall/while/Func/StatefulPartitionedCall/sequential/lstm/PartitionedCall/input/_14_switch/_66", "op": "Switch", "input": ["StatefulPartitionedCall/sequential/lstm/PartitionedCall/while/merge/_54", "StatefulPartitionedCall/sequential/lstm/PartitionedCall/while/LoopCond/_57"], "attr": {"T": {"type": "DT_FLOAT"}}}, {"name": "StatefulPartitionedCall/sequential/lstm/PartitionedCall/while/Func/StatefulPartitionedCall/sequential/lstm/PartitionedCall/input/_12_switch/_62", "op": "Switch", "input": ["StatefulPartitionedCall/sequential/lstm/PartitionedCall/while/merge/_50", "StatefulPartitionedCall/sequential/lstm/PartitionedCall/while/LoopCond/_57"], "attr": {"T": {"type": "DT_FLOAT"}}}, {"name": "StatefulPartitionedCall/sequential/lstm/PartitionedCall/while/Func/StatefulPartitionedCall/sequential/lstm/PartitionedCall/input/_15_switch/_67", "op": "Switch", "input": ["StatefulPartitionedCall/sequential/lstm/PartitionedCall/while/merge/_55", "StatefulPartitionedCall/sequential/lstm/PartitionedCall/while/LoopCond/_57"], "attr": {"T": {"type": "DT_FLOAT"}}}, {"name": "StatefulPartitionedCall/sequential/lstm/PartitionedCall/while/Func/StatefulPartitionedCall/sequential/lstm/PartitionedCall/input/_16_switch/_68", "op": "Switch", "input": ["StatefulPartitionedCall/sequential/lstm/PartitionedCall/while/merge/_56", "StatefulPartitionedCall/sequential/lstm/PartitionedCall/while/LoopCond/_57"], "attr": {"T": {"type": "DT_FLOAT"}}}, {"name": "StatefulPartitionedCall/sequential/lstm/PartitionedCall/while/StatefulPartitionedCall/sequential/lstm/PartitionedCall/time_switch/_60", "op": "Switch", "input": ["StatefulPartitionedCall/sequential/lstm/PartitionedCall/while/merge/_48", "StatefulPartitionedCall/sequential/lstm/PartitionedCall/while/LoopCond/_57"], "attr": {"T": {"type": "DT_INT32"}}}, {"name": "StatefulPartitionedCall/sequential/lstm/PartitionedCall/while/StatefulPartitionedCall/sequential/lstm/PartitionedCall/while/loop_counter_switch/_58", "op": "Switch", "input": ["StatefulPartitionedCall/sequential/lstm/PartitionedCall/while/merge/_46", "StatefulPartitionedCall/sequential/lstm/PartitionedCall/while/LoopCond/_57"], "attr": {"T": {"type": "DT_INT32"}}}, {"name": "StatefulPartitionedCall/sequential/lstm/PartitionedCall/while/StatefulPartitionedCall/sequential/lstm/PartitionedCall/TensorArrayV2_1_switch/_61", "op": "Switch", "input": ["StatefulPartitionedCall/sequential/lstm/PartitionedCall/while/merge/_49", "StatefulPartitionedCall/sequential/lstm/PartitionedCall/while/LoopCond/_57"], "attr": {"T": {"type": "DT_VARIANT"}}}, {"name": "StatefulPartitionedCall/sequential/lstm/PartitionedCall/while/StatefulPartitionedCall/sequential/lstm/PartitionedCall/strided_slice_switch/_64", "op": "Switch", "input": ["StatefulPartitionedCall/sequential/lstm/PartitionedCall/while/merge/_52", "StatefulPartitionedCall/sequential/lstm/PartitionedCall/while/LoopCond/_57"], "attr": {"T": {"type": "DT_INT32"}}}, {"name": "StatefulPartitionedCall/sequential/lstm/PartitionedCall/while/loop_body_control/_69", "op": "Identity", "input": ["StatefulPartitionedCall/sequential/lstm/PartitionedCall/while/StatefulPartitionedCall/sequential/lstm/PartitionedCall/while/loop_counter_switch/_58:1"], "attr": {"_has_manual_control_dependencies": {"b": true}, "T": {"type": "DT_INT32"}}}, {"name": "StatefulPartitionedCall/sequential/lstm/PartitionedCall/while/exit/_73", "op": "Exit", "input": ["StatefulPartitionedCall/sequential/lstm/PartitionedCall/while/StatefulPartitionedCall/sequential/lstm/PartitionedCall/TensorArrayV2_1_switch/_61"], "attr": {"T": {"type": "DT_VARIANT"}}}, {"name": "StatefulPartitionedCall/sequential/lstm/PartitionedCall/while/body/_34/while/split/split_dim", "op": "Const", "input": ["^StatefulPartitionedCall/sequential/lstm/PartitionedCall/while/loop_body_control/_69"], "attr": {"value": {"tensor": {"dtype": "DT_INT32", "tensorShape": {}}}, "dtype": {"type": "DT_INT32"}}}, {"name": "StatefulPartitionedCall/sequential/lstm/PartitionedCall/while/next_iteration/_89", "op": "NextIteration", "input": ["StatefulPartitionedCall/sequential/lstm/PartitionedCall/while/StatefulPartitionedCall/sequential/lstm/PartitionedCall/TensorArrayUnstack/TensorListFromTensor_switch/_65:1", "^StatefulPartitionedCall/sequential/lstm/PartitionedCall/while/loop_body_control/_69"], "attr": {"T": {"type": "DT_VARIANT"}}}, {"name": "StatefulPartitionedCall/sequential/lstm/PartitionedCall/while/body/_34/while/TensorArrayV2Read/TensorListGetItem/element_shape", "op": "Const", "input": ["^StatefulPartitionedCall/sequential/lstm/PartitionedCall/while/loop_body_control/_69"], "attr": {"value": {"tensor": {"dtype": "DT_INT32", "tensorShape": {"dim": [{"size": "2"}]}}}, "dtype": {"type": "DT_INT32"}}}, {"name": "StatefulPartitionedCall/sequential/lstm/PartitionedCall/while/next_iteration/_90", "op": "NextIteration", "input": ["StatefulPartitionedCall/sequential/lstm/PartitionedCall/while/Func/StatefulPartitionedCall/sequential/lstm/PartitionedCall/input/_14_switch/_66:1", "^StatefulPartitionedCall/sequential/lstm/PartitionedCall/while/loop_body_control/_69"], "attr": {"T": {"type": "DT_FLOAT"}}}, {"name": "StatefulPartitionedCall/sequential/lstm/PartitionedCall/while/next_iteration/_91", "op": "NextIteration", "input": ["StatefulPartitionedCall/sequential/lstm/PartitionedCall/while/Func/StatefulPartitionedCall/sequential/lstm/PartitionedCall/input/_15_switch/_67:1", "^StatefulPartitionedCall/sequential/lstm/PartitionedCall/while/loop_body_control/_69"], "attr": {"T": {"type": "DT_FLOAT"}}}, {"name": "StatefulPartitionedCall/sequential/lstm/PartitionedCall/while/body/_34/while/MatMul_1", "op": "MatMul", "input": ["StatefulPartitionedCall/sequential/lstm/PartitionedCall/while/Func/StatefulPartitionedCall/sequential/lstm/PartitionedCall/input/_12_switch/_62:1", "StatefulPartitionedCall/sequential/lstm/PartitionedCall/while/Func/StatefulPartitionedCall/sequential/lstm/PartitionedCall/input/_15_switch/_67:1", "^StatefulPartitionedCall/sequential/lstm/PartitionedCall/while/loop_body_control/_69"], "device": "/device:CPU:0", "attr": {"transpose_a": {"b": false}, "_input_shapes": {"list": {"shape": [{"dim": [{"size": "-14"}, {"size": "64"}]}, {"dim": [{"size": "64"}, {"size": "256"}]}]}}, "T": {"type": "DT_FLOAT"}, "transpose_b": {"b": false}}}, {"name": "StatefulPartitionedCall/sequential/lstm/PartitionedCall/while/next_iteration/_92", "op": "NextIteration", "input": ["StatefulPartitionedCall/sequential/lstm/PartitionedCall/while/Func/StatefulPartitionedCall/sequential/lstm/PartitionedCall/input/_16_switch/_68:1", "^StatefulPartitionedCall/sequential/lstm/PartitionedCall/while/loop_body_control/_69"], "attr": {"T": {"type": "DT_FLOAT"}}}, {"name": "Func/StatefulPartitionedCall/sequential/lstm/PartitionedCall/while/body/_34/input/_169", "op": "Identity", "input": ["StatefulPartitionedCall/sequential/lstm/PartitionedCall/while/StatefulPartitionedCall/sequential/lstm/PartitionedCall/time_switch/_60:1", "^StatefulPartitionedCall/sequential/lstm/PartitionedCall/while/loop_body_control/_69"], "attr": {"T": {"type": "DT_INT32"}}}, {"name": "StatefulPartitionedCall/sequential/lstm/PartitionedCall/while/body/_34/while/add_2/y", "op": "Const", "input": ["^StatefulPartitionedCall/sequential/lstm/PartitionedCall/while/loop_body_control/_69"], "attr": {"value": {"tensor": {"dtype": "DT_INT32", "tensorShape": {}}}, "dtype": {"type": "DT_INT32"}}}, {"name": "StatefulPartitionedCall/sequential/lstm/PartitionedCall/while/body/_34/while/add_3/y", "op": "Const", "input": ["^StatefulPartitionedCall/sequential/lstm/PartitionedCall/while/loop_body_control/_69"], "attr": {"value": {"tensor": {"dtype": "DT_INT32", "tensorShape": {}}}, "dtype": {"type": "DT_INT32"}}}, {"name": "StatefulPartitionedCall/sequential/lstm/PartitionedCall/while/next_iteration/_88", "op": "NextIteration", "input": ["StatefulPartitionedCall/sequential/lstm/PartitionedCall/while/StatefulPartitionedCall/sequential/lstm/PartitionedCall/strided_slice_switch/_64:1", "^StatefulPartitionedCall/sequential/lstm/PartitionedCall/while/loop_body_control/_69"], "attr": {"T": {"type": "DT_INT32"}}}, {"name": "StatefulPartitionedCall/sequential/lstm/PartitionedCall/TensorArrayV2Stack/TensorListStack", "op": "TensorListStack", "input": ["StatefulPartitionedCall/sequential/lstm/PartitionedCall/while/exit/_73", "StatefulPartitionedCall/sequential/lstm/PartitionedCall/TensorArrayV2Stack/TensorListStack/element_shape"], "attr": {"num_elements": {"i": "-1"}, "element_dtype": {"type": "DT_FLOAT"}}}, {"name": "StatefulPartitionedCall/sequential/lstm/PartitionedCall/while/body/_34/while/TensorArrayV2Read/TensorListGetItem", "op": "TensorListGetItem", "input": ["StatefulPartitionedCall/sequential/lstm/PartitionedCall/while/StatefulPartitionedCall/sequential/lstm/PartitionedCall/TensorArrayUnstack/TensorListFromTensor_switch/_65:1", "Func/StatefulPartitionedCall/sequential/lstm/PartitionedCall/while/body/_34/input/_169", "StatefulPartitionedCall/sequential/lstm/PartitionedCall/while/body/_34/while/TensorArrayV2Read/TensorListGetItem/element_shape"], "attr": {"element_dtype": {"type": "DT_FLOAT"}}}, {"name": "StatefulPartitionedCall/sequential/lstm/PartitionedCall/while/body/_34/while/add_2", "op": "AddV2", "input": ["Func/StatefulPartitionedCall/sequential/lstm/PartitionedCall/while/body/_34/input/_169", "StatefulPartitionedCall/sequential/lstm/PartitionedCall/while/body/_34/while/add_2/y"], "attr": {"T": {"type": "DT_INT32"}}}, {"name": "StatefulPartitionedCall/sequential/lstm/PartitionedCall/while/body/_34/while/add_3", "op": "AddV2", "input": ["StatefulPartitionedCall/sequential/lstm/PartitionedCall/while/StatefulPartitionedCall/sequential/lstm/PartitionedCall/while/loop_counter_switch/_58:1", "StatefulPartitionedCall/sequential/lstm/PartitionedCall/while/body/_34/while/add_3/y"], "attr": {"T": {"type": "DT_INT32"}}}, {"name": "StatefulPartitionedCall/sequential/lstm_1/PartitionedCall/TensorArrayUnstack/TensorListFromTensor", "op": "TensorListFromTensor", "input": ["StatefulPartitionedCall/sequential/lstm/PartitionedCall/TensorArrayV2Stack/TensorListStack", "StatefulPartitionedCall/sequential/lstm_1/PartitionedCall/TensorArrayUnstack/TensorListFromTensor/element_shape"], "attr": {"shape_type": {"type": "DT_INT32"}, "element_dtype": {"type": "DT_FLOAT"}}, "experimentalType": {"typeId": "TFT_PRODUCT", "args": [{"typeId": "TFT_ARRAY", "args": [{"typeId": "TFT_TENSOR", "args": [{"typeId": "TFT_FLOAT"}]}]}]}}, {"name": "StatefulPartitionedCall/sequential/lstm/PartitionedCall/transpose_1", "op": "Transpose", "input": ["StatefulPartitionedCall/sequential/lstm/PartitionedCall/TensorArrayV2Stack/TensorListStack", "StatefulPartitionedCall/sequential/lstm/PartitionedCall/transpose_1/perm"], "attr": {"Tperm": {"type": "DT_INT32"}, "_input_shapes": {"list": {"shape": [{"dim": [{"size": "-17"}, {"size": "-5"}, {"size": "64"}]}, {"dim": [{"size": "3"}]}]}}, "T": {"type": "DT_FLOAT"}}}, {"name": "StatefulPartitionedCall/sequential/lstm_1/PartitionedCall/Shape", "op": "Shape", "input": ["StatefulPartitionedCall/sequential/lstm/PartitionedCall/TensorArrayV2Stack/TensorListStack"], "attr": {"T": {"type": "DT_FLOAT"}, "out_type": {"type": "DT_INT32"}}, "experimentalType": {"typeId": "TFT_PRODUCT", "args": [{"typeId": "TFT_SHAPE_TENSOR", "args": [{"typeId": "TFT_INT32"}]}]}}, {"name": "StatefulPartitionedCall/sequential/lstm/PartitionedCall/while/body/_34/while/add", "op": "_FusedMatMul", "input": ["StatefulPartitionedCall/sequential/lstm/PartitionedCall/while/body/_34/while/TensorArrayV2Read/TensorListGetItem", "StatefulPartitionedCall/sequential/lstm/PartitionedCall/while/Func/StatefulPartitionedCall/sequential/lstm/PartitionedCall/input/_14_switch/_66:1", "StatefulPartitionedCall/sequential/lstm/PartitionedCall/while/body/_34/while/MatMul_1"], "device": "/device:CPU:0", "attr": {"transpose_a": {"b": false}, "_input_shapes": {"list": {"shape": [{"dim": [{"size": "-14"}, {"size": "1"}]}, {"dim": [{"size": "1"}, {"size": "256"}]}]}}, "transpose_b": {"b": false}, "fused_ops": {"list": {"s": ["Qmlhc0FkZA=="]}}, "leakyrelu_alpha": {"f": 0.2}, "num_args": {"i": "1"}, "epsilon": {"f": 0.0}, "T": {"type": "DT_FLOAT"}}}, {"name": "StatefulPartitionedCall/sequential/lstm/PartitionedCall/while/next_iteration/_84", "op": "NextIteration", "input": ["StatefulPartitionedCall/sequential/lstm/PartitionedCall/while/body/_34/while/add_2", "^StatefulPartitionedCall/sequential/lstm/PartitionedCall/while/loop_body_control/_69"], "attr": {"T": {"type": "DT_INT32"}}}, {"name": "StatefulPartitionedCall/sequential/lstm/PartitionedCall/while/next_iteration/_82", "op": "NextIteration", "input": ["StatefulPartitionedCall/sequential/lstm/PartitionedCall/while/body/_34/while/add_3", "^StatefulPartitionedCall/sequential/lstm/PartitionedCall/while/loop_body_control/_69"], "attr": {"T": {"type": "DT_INT32"}}}, {"name": "StatefulPartitionedCall/sequential/lstm_1/PartitionedCall/while/enter/_102", "op": "Enter", "input": ["StatefulPartitionedCall/sequential/lstm_1/PartitionedCall/TensorArrayUnstack/TensorListFromTensor"], "attr": {"is_constant": {"b": false}, "frame_name": {"s": "U3RhdGVmdWxQYXJ0aXRpb25lZENhbGwvc2VxdWVudGlhbC9sc3RtXzEvUGFydGl0aW9uZWRDYWxsL3doaWxl"}, "T": {"type": "DT_VARIANT"}, "parallel_iterations": {"i": "32"}}}, {"name": "StatefulPartitionedCall/sequential/lstm_1/Shape", "op": "Shape", "input": ["StatefulPartitionedCall/sequential/lstm/PartitionedCall/transpose_1"], "attr": {"T": {"type": "DT_FLOAT"}, "out_type": {"type": "DT_INT32"}}, "experimentalType": {"typeId": "TFT_PRODUCT", "args": [{"typeId": "TFT_SHAPE_TENSOR", "args": [{"typeId": "TFT_INT32"}]}]}}, {"name": "StatefulPartitionedCall/sequential/lstm_1/PartitionedCall/strided_slice", "op": "StridedSlice", "input": ["StatefulPartitionedCall/sequential/lstm_1/PartitionedCall/Shape", "StatefulPartitionedCall/sequential/lstm_1/PartitionedCall/strided_slice/stack", "StatefulPartitionedCall/sequential/lstm_1/PartitionedCall/strided_slice/stack_1", "StatefulPartitionedCall/sequential/lstm_1/PartitionedCall/strided_slice/stack_2"], "attr": {"shrink_axis_mask": {"i": "1"}, "new_axis_mask": {"i": "0"}, "Index": {"type": "DT_INT32"}, "begin_mask": {"i": "0"}, "end_mask": {"i": "0"}, "T": {"type": "DT_INT32"}, "ellipsis_mask": {"i": "0"}}}, {"name": "StatefulPartitionedCall/sequential/lstm/PartitionedCall/while/body/_34/while/BiasAdd", "op": "BiasAdd", "input": ["StatefulPartitionedCall/sequential/lstm/PartitionedCall/while/body/_34/while/add", "StatefulPartitionedCall/sequential/lstm/PartitionedCall/while/Func/StatefulPartitionedCall/sequential/lstm/PartitionedCall/input/_16_switch/_68:1"], "attr": {"_input_shapes": {"list": {"shape": [{"dim": [{"size": "-15"}, {"size": "256"}]}, {"dim": [{"size": "256"}]}]}}, "T": {"type": "DT_FLOAT"}, "data_format": {"s": "TkhXQw=="}}}, {"name": "StatefulPartitionedCall/sequential/lstm_1/PartitionedCall/while/merge/_113", "op": "Merge", "input": ["StatefulPartitionedCall/sequential/lstm_1/PartitionedCall/while/enter/_102", "StatefulPartitionedCall/sequential/lstm_1/PartitionedCall/while/next_iteration/_149"], "attr": {"N": {"i": "2"}, "T": {"type": "DT_VARIANT"}}}, {"name": "StatefulPartitionedCall/sequential/lstm_1/strided_slice", "op": "StridedSlice", "input": ["StatefulPartitionedCall/sequential/lstm_1/Shape", "StatefulPartitionedCall/sequential/lstm_1/strided_slice/stack", "StatefulPartitionedCall/sequential/lstm_1/strided_slice/stack_1", "StatefulPartitionedCall/sequential/lstm_1/strided_slice/stack_2"], "attr": {"shrink_axis_mask": {"i": "1"}, "Index": {"type": "DT_INT32"}, "new_axis_mask": {"i": "0"}, "begin_mask": {"i": "0"}, "T": {"type": "DT_INT32"}, "end_mask": {"i": "0"}, "ellipsis_mask": {"i": "0"}}}, {"name": "StatefulPartitionedCall/sequential/lstm_1/PartitionedCall/while/enter/_101", "op": "Enter", "input": ["StatefulPartitionedCall/sequential/lstm_1/PartitionedCall/strided_slice"], "attr": {"is_constant": {"b": false}, "frame_name": {"s": "U3RhdGVmdWxQYXJ0aXRpb25lZENhbGwvc2VxdWVudGlhbC9sc3RtXzEvUGFydGl0aW9uZWRDYWxsL3doaWxl"}, "T": {"type": "DT_INT32"}, "parallel_iterations": {"i": "32"}}}, {"name": "StatefulPartitionedCall/sequential/lstm/PartitionedCall/while/body/_34/while/split", "op": "Split", "input": ["StatefulPartitionedCall/sequential/lstm/PartitionedCall/while/body/_34/while/split/split_dim", "StatefulPartitionedCall/sequential/lstm/PartitionedCall/while/body/_34/while/BiasAdd"], "attr": {"num_split": {"i": "4"}, "T": {"type": "DT_FLOAT"}}}, {"name": "StatefulPartitionedCall/sequential/lstm_1/zeros_1/packed", "op": "Pack", "input": ["StatefulPartitionedCall/sequential/lstm_1/strided_slice", "StatefulPartitionedCall/sequential/lstm_1/zeros_1/packed/1"], "attr": {"N": {"i": "2"}, "axis": {"i": "0"}, "T": {"type": "DT_INT32"}}}, {"name": "StatefulPartitionedCall/sequential/lstm_1/zeros/packed", "op": "Pack", "input": ["StatefulPartitionedCall/sequential/lstm_1/strided_slice", "StatefulPartitionedCall/sequential/lstm_1/zeros/packed/1"], "attr": {"N": {"i": "2"}, "axis": {"i": "0"}, "T": {"type": "DT_INT32"}}}, {"name": "StatefulPartitionedCall/sequential/lstm_1/PartitionedCall/while/merge/_112", "op": "Merge", "input": ["StatefulPartitionedCall/sequential/lstm_1/PartitionedCall/while/enter/_101", "StatefulPartitionedCall/sequential/lstm_1/PartitionedCall/while/next_iteration/_148"], "attr": {"N": {"i": "2"}, "T": {"type": "DT_INT32"}}}, {"name": "StatefulPartitionedCall/sequential/lstm/PartitionedCall/while/body/_34/while/Sigmoid", "op": "Sigmoid", "input": ["StatefulPartitionedCall/sequential/lstm/PartitionedCall/while/body/_34/while/split"], "attr": {"_input_shapes": {"list": {"shape": [{"dim": [{"size": "-15"}, {"size": "64"}]}]}}, "T": {"type": "DT_FLOAT"}}}, {"name": "StatefulPartitionedCall/sequential/lstm/PartitionedCall/while/body/_34/while/Sigmoid_1", "op": "Sigmoid", "input": ["StatefulPartitionedCall/sequential/lstm/PartitionedCall/while/body/_34/while/split:1"], "attr": {"_input_shapes": {"list": {"shape": [{"dim": [{"size": "-15"}, {"size": "64"}]}]}}, "T": {"type": "DT_FLOAT"}}}, {"name": "StatefulPartitionedCall/sequential/lstm/PartitionedCall/while/body/_34/while/Tanh", "op": "Tanh", "input": ["StatefulPartitionedCall/sequential/lstm/PartitionedCall/while/body/_34/while/split:2"], "attr": {"T": {"type": "DT_FLOAT"}}}, {"name": "StatefulPartitionedCall/sequential/lstm/PartitionedCall/while/body/_34/while/Sigmoid_2", "op": "Sigmoid", "input": ["StatefulPartitionedCall/sequential/lstm/PartitionedCall/while/body/_34/while/split:3"], "attr": {"_input_shapes": {"list": {"shape": [{"dim": [{"size": "-15"}, {"size": "64"}]}]}}, "T": {"type": "DT_FLOAT"}}}, {"name": "StatefulPartitionedCall/sequential/lstm_1/zeros_1", "op": "Fill", "input": ["StatefulPartitionedCall/sequential/lstm_1/zeros_1/packed", "StatefulPartitionedCall/sequential/lstm_1/zeros_1/Const"], "attr": {"T": {"type": "DT_FLOAT"}, "index_type": {"type": "DT_INT32"}}}, {"name": "StatefulPartitionedCall/sequential/lstm_1/zeros", "op": "Fill", "input": ["StatefulPartitionedCall/sequential/lstm_1/zeros/packed", "StatefulPartitionedCall/sequential/lstm_1/zeros/Const"], "attr": {"T": {"type": "DT_FLOAT"}, "index_type": {"type": "DT_INT32"}}}, {"name": "StatefulPartitionedCall/sequential/lstm_1/PartitionedCall/while/cond/_93/while/Less", "op": "Less", "input": ["StatefulPartitionedCall/sequential/lstm_1/PartitionedCall/while/merge/_108", "StatefulPartitionedCall/sequential/lstm_1/PartitionedCall/while/merge/_112", "^StatefulPartitionedCall/sequential/lstm_1/PartitionedCall/while/merge/_106"], "attr": {"T": {"type": "DT_INT32"}}}, {"name": "StatefulPartitionedCall/sequential/lstm/PartitionedCall/while/body/_34/while/mul", "op": "Mul", "input": ["StatefulPartitionedCall/sequential/lstm/PartitionedCall/while/body/_34/while/Sigmoid_1", "StatefulPartitionedCall/sequential/lstm/PartitionedCall/while/Func/StatefulPartitionedCall/sequential/lstm/PartitionedCall/input/_13_switch/_63:1"], "attr": {"T": {"type": "DT_FLOAT"}}}, {"name": "StatefulPartitionedCall/sequential/lstm/PartitionedCall/while/body/_34/while/mul_1", "op": "Mul", "input": ["StatefulPartitionedCall/sequential/lstm/PartitionedCall/while/body/_34/while/Sigmoid", "StatefulPartitionedCall/sequential/lstm/PartitionedCall/while/body/_34/while/Tanh"], "attr": {"T": {"type": "DT_FLOAT"}}}, {"name": "StatefulPartitionedCall/sequential/lstm_1/PartitionedCall/while/enter/_100", "op": "Enter", "input": ["StatefulPartitionedCall/sequential/lstm_1/zeros_1"], "attr": {"is_constant": {"b": false}, "frame_name": {"s": "U3RhdGVmdWxQYXJ0aXRpb25lZENhbGwvc2VxdWVudGlhbC9sc3RtXzEvUGFydGl0aW9uZWRDYWxsL3doaWxl"}, "T": {"type": "DT_FLOAT"}, "parallel_iterations": {"i": "32"}}}, {"name": "StatefulPartitionedCall/sequential/lstm_1/PartitionedCall/while/enter/_99", "op": "Enter", "input": ["StatefulPartitionedCall/sequential/lstm_1/zeros"], "attr": {"is_constant": {"b": false}, "frame_name": {"s": "U3RhdGVmdWxQYXJ0aXRpb25lZENhbGwvc2VxdWVudGlhbC9sc3RtXzEvUGFydGl0aW9uZWRDYWxsL3doaWxl"}, "T": {"type": "DT_FLOAT"}, "parallel_iterations": {"i": "32"}}}, {"name": "StatefulPartitionedCall/sequential/lstm_1/PartitionedCall/while/LoopCond/_117", "op": "LoopCond", "input": ["StatefulPartitionedCall/sequential/lstm_1/PartitionedCall/while/cond/_93/while/Less"]}, {"name": "StatefulPartitionedCall/sequential/lstm/PartitionedCall/while/body/_34/while/add_1", "op": "AddV2", "input": ["StatefulPartitionedCall/sequential/lstm/PartitionedCall/while/body/_34/while/mul", "StatefulPartitionedCall/sequential/lstm/PartitionedCall/while/body/_34/while/mul_1"], "attr": {"T": {"type": "DT_FLOAT"}}}, {"name": "StatefulPartitionedCall/sequential/lstm_1/PartitionedCall/while/merge/_111", "op": "Merge", "input": ["StatefulPartitionedCall/sequential/lstm_1/PartitionedCall/while/enter/_100", "StatefulPartitionedCall/sequential/lstm_1/PartitionedCall/while/next_iteration/_147"], "attr": {"N": {"i": "2"}, "T": {"type": "DT_FLOAT"}}}, {"name": "StatefulPartitionedCall/sequential/lstm_1/PartitionedCall/while/merge/_110", "op": "Merge", "input": ["StatefulPartitionedCall/sequential/lstm_1/PartitionedCall/while/enter/_99", "StatefulPartitionedCall/sequential/lstm_1/PartitionedCall/while/next_iteration/_146"], "attr": {"N": {"i": "2"}, "T": {"type": "DT_FLOAT"}}}, {"name": "StatefulPartitionedCall/sequential/lstm_1/PartitionedCall/while/StatefulPartitionedCall/sequential/lstm_1/PartitionedCall/TensorArrayUnstack/TensorListFromTensor_switch/_125", "op": "Switch", "input": ["StatefulPartitionedCall/sequential/lstm_1/PartitionedCall/while/merge/_113", "StatefulPartitionedCall/sequential/lstm_1/PartitionedCall/while/LoopCond/_117"], "attr": {"T": {"type": "DT_VARIANT"}}}, {"name": "StatefulPartitionedCall/sequential/lstm_1/PartitionedCall/while/Func/StatefulPartitionedCall/sequential/lstm_1/PartitionedCall/input/_25_switch/_126", "op": "Switch", "input": ["StatefulPartitionedCall/sequential/lstm_1/PartitionedCall/while/merge/_114", "StatefulPartitionedCall/sequential/lstm_1/PartitionedCall/while/LoopCond/_117"], "attr": {"T": {"type": "DT_FLOAT"}}}, {"name": "StatefulPartitionedCall/sequential/lstm_1/PartitionedCall/while/Func/StatefulPartitionedCall/sequential/lstm_1/PartitionedCall/input/_26_switch/_127", "op": "Switch", "input": ["StatefulPartitionedCall/sequential/lstm_1/PartitionedCall/while/merge/_115", "StatefulPartitionedCall/sequential/lstm_1/PartitionedCall/while/LoopCond/_117"], "attr": {"T": {"type": "DT_FLOAT"}}}, {"name": "StatefulPartitionedCall/sequential/lstm_1/PartitionedCall/while/Func/StatefulPartitionedCall/sequential/lstm_1/PartitionedCall/input/_27_switch/_128", "op": "Switch", "input": ["StatefulPartitionedCall/sequential/lstm_1/PartitionedCall/while/merge/_116", "StatefulPartitionedCall/sequential/lstm_1/PartitionedCall/while/LoopCond/_117"], "attr": {"T": {"type": "DT_FLOAT"}}}, {"name": "StatefulPartitionedCall/sequential/lstm_1/PartitionedCall/while/StatefulPartitionedCall/sequential/lstm_1/PartitionedCall/time_switch/_120", "op": "Switch", "input": ["StatefulPartitionedCall/sequential/lstm_1/PartitionedCall/while/merge/_108", "StatefulPartitionedCall/sequential/lstm_1/PartitionedCall/while/LoopCond/_117"], "attr": {"T": {"type": "DT_INT32"}}}, {"name": "StatefulPartitionedCall/sequential/lstm_1/PartitionedCall/while/StatefulPartitionedCall/sequential/lstm_1/PartitionedCall/while/loop_counter_switch/_118", "op": "Switch", "input": ["StatefulPartitionedCall/sequential/lstm_1/PartitionedCall/while/merge/_106", "StatefulPartitionedCall/sequential/lstm_1/PartitionedCall/while/LoopCond/_117"], "attr": {"T": {"type": "DT_INT32"}}}, {"name": "StatefulPartitionedCall/sequential/lstm_1/PartitionedCall/while/StatefulPartitionedCall/sequential/lstm_1/PartitionedCall/TensorArrayV2_1_switch/_121", "op": "Switch", "input": ["StatefulPartitionedCall/sequential/lstm_1/PartitionedCall/while/merge/_109", "StatefulPartitionedCall/sequential/lstm_1/PartitionedCall/while/LoopCond/_117"], "attr": {"T": {"type": "DT_VARIANT"}}}, {"name": "StatefulPartitionedCall/sequential/lstm_1/PartitionedCall/while/StatefulPartitionedCall/sequential/lstm_1/PartitionedCall/strided_slice_switch/_124", "op": "Switch", "input": ["StatefulPartitionedCall/sequential/lstm_1/PartitionedCall/while/merge/_112", "StatefulPartitionedCall/sequential/lstm_1/PartitionedCall/while/LoopCond/_117"], "attr": {"T": {"type": "DT_INT32"}}}, {"name": "StatefulPartitionedCall/sequential/lstm/PartitionedCall/while/body/_34/while/Tanh_1", "op": "Tanh", "input": ["StatefulPartitionedCall/sequential/lstm/PartitionedCall/while/body/_34/while/add_1"], "attr": {"T": {"type": "DT_FLOAT"}}}, {"name": "StatefulPartitionedCall/sequential/lstm/PartitionedCall/while/next_iteration/_87", "op": "NextIteration", "input": ["StatefulPartitionedCall/sequential/lstm/PartitionedCall/while/body/_34/while/add_1", "^StatefulPartitionedCall/sequential/lstm/PartitionedCall/while/loop_body_control/_69"], "attr": {"T": {"type": "DT_FLOAT"}}}, {"name": "StatefulPartitionedCall/sequential/lstm_1/PartitionedCall/while/Func/StatefulPartitionedCall/sequential/lstm_1/PartitionedCall/input/_24_switch/_123", "op": "Switch", "input": ["StatefulPartitionedCall/sequential/lstm_1/PartitionedCall/while/merge/_111", "StatefulPartitionedCall/sequential/lstm_1/PartitionedCall/while/LoopCond/_117"], "attr": {"T": {"type": "DT_FLOAT"}}}, {"name": "StatefulPartitionedCall/sequential/lstm_1/PartitionedCall/while/Func/StatefulPartitionedCall/sequential/lstm_1/PartitionedCall/input/_23_switch/_122", "op": "Switch", "input": ["StatefulPartitionedCall/sequential/lstm_1/PartitionedCall/while/merge/_110", "StatefulPartitionedCall/sequential/lstm_1/PartitionedCall/while/LoopCond/_117"], "attr": {"T": {"type": "DT_FLOAT"}}}, {"name": "StatefulPartitionedCall/sequential/lstm_1/PartitionedCall/while/loop_body_control/_129", "op": "Identity", "input": ["StatefulPartitionedCall/sequential/lstm_1/PartitionedCall/while/StatefulPartitionedCall/sequential/lstm_1/PartitionedCall/while/loop_counter_switch/_118:1"], "attr": {"_has_manual_control_dependencies": {"b": true}, "T": {"type": "DT_INT32"}}}, {"name": "StatefulPartitionedCall/sequential/lstm_1/PartitionedCall/while/exit/_133", "op": "Exit", "input": ["StatefulPartitionedCall/sequential/lstm_1/PartitionedCall/while/StatefulPartitionedCall/sequential/lstm_1/PartitionedCall/TensorArrayV2_1_switch/_121"], "attr": {"T": {"type": "DT_VARIANT"}}}, {"name": "StatefulPartitionedCall/sequential/lstm/PartitionedCall/while/body/_34/while/mul_2", "op": "Mul", "input": ["StatefulPartitionedCall/sequential/lstm/PartitionedCall/while/body/_34/while/Sigmoid_2", "StatefulPartitionedCall/sequential/lstm/PartitionedCall/while/body/_34/while/Tanh_1"], "attr": {"T": {"type": "DT_FLOAT"}}}, {"name": "StatefulPartitionedCall/sequential/lstm_1/PartitionedCall/while/body/_94/while/TensorArrayV2Write/TensorListSetItem/index", "op": "Const", "input": ["^StatefulPartitionedCall/sequential/lstm_1/PartitionedCall/while/loop_body_control/_129"], "attr": {"value": {"tensor": {"dtype": "DT_INT32", "tensorShape": {}}}, "dtype": {"type": "DT_INT32"}}}, {"name": "StatefulPartitionedCall/sequential/lstm_1/PartitionedCall/while/body/_94/while/split/split_dim", "op": "Const", "input": ["^StatefulPartitionedCall/sequential/lstm_1/PartitionedCall/while/loop_body_control/_129"], "attr": {"value": {"tensor": {"dtype": "DT_INT32", "tensorShape": {}}}, "dtype": {"type": "DT_INT32"}}}, {"name": "StatefulPartitionedCall/sequential/lstm_1/PartitionedCall/while/next_iteration/_149", "op": "NextIteration", "input": ["StatefulPartitionedCall/sequential/lstm_1/PartitionedCall/while/StatefulPartitionedCall/sequential/lstm_1/PartitionedCall/TensorArrayUnstack/TensorListFromTensor_switch/_125:1", "^StatefulPartitionedCall/sequential/lstm_1/PartitionedCall/while/loop_body_control/_129"], "attr": {"T": {"type": "DT_VARIANT"}}}, {"name": "StatefulPartitionedCall/sequential/lstm_1/PartitionedCall/while/body/_94/while/TensorArrayV2Read/TensorListGetItem/element_shape", "op": "Const", "input": ["^StatefulPartitionedCall/sequential/lstm_1/PartitionedCall/while/loop_body_control/_129"], "attr": {"value": {"tensor": {"dtype": "DT_INT32", "tensorShape": {"dim": [{"size": "2"}]}}}, "dtype": {"type": "DT_INT32"}}}, {"name": "StatefulPartitionedCall/sequential/lstm_1/PartitionedCall/while/next_iteration/_150", "op": "NextIteration", "input": ["StatefulPartitionedCall/sequential/lstm_1/PartitionedCall/while/Func/StatefulPartitionedCall/sequential/lstm_1/PartitionedCall/input/_25_switch/_126:1", "^StatefulPartitionedCall/sequential/lstm_1/PartitionedCall/while/loop_body_control/_129"], "attr": {"T": {"type": "DT_FLOAT"}}}, {"name": "StatefulPartitionedCall/sequential/lstm_1/PartitionedCall/while/next_iteration/_151", "op": "NextIteration", "input": ["StatefulPartitionedCall/sequential/lstm_1/PartitionedCall/while/Func/StatefulPartitionedCall/sequential/lstm_1/PartitionedCall/input/_26_switch/_127:1", "^StatefulPartitionedCall/sequential/lstm_1/PartitionedCall/while/loop_body_control/_129"], "attr": {"T": {"type": "DT_FLOAT"}}}, {"name": "StatefulPartitionedCall/sequential/lstm_1/PartitionedCall/while/next_iteration/_152", "op": "NextIteration", "input": ["StatefulPartitionedCall/sequential/lstm_1/PartitionedCall/while/Func/StatefulPartitionedCall/sequential/lstm_1/PartitionedCall/input/_27_switch/_128:1", "^StatefulPartitionedCall/sequential/lstm_1/PartitionedCall/while/loop_body_control/_129"], "attr": {"T": {"type": "DT_FLOAT"}}}, {"name": "StatefulPartitionedCall/sequential/lstm_1/PartitionedCall/while/body/_94/while/add_2/y", "op": "Const", "input": ["^StatefulPartitionedCall/sequential/lstm_1/PartitionedCall/while/loop_body_control/_129"], "attr": {"value": {"tensor": {"dtype": "DT_INT32", "tensorShape": {}}}, "dtype": {"type": "DT_INT32"}}}, {"name": "StatefulPartitionedCall/sequential/lstm_1/PartitionedCall/while/body/_94/while/add_3/y", "op": "Const", "input": ["^StatefulPartitionedCall/sequential/lstm_1/PartitionedCall/while/loop_body_control/_129"], "attr": {"value": {"tensor": {"dtype": "DT_INT32", "tensorShape": {}}}, "dtype": {"type": "DT_INT32"}}}, {"name": "StatefulPartitionedCall/sequential/lstm_1/PartitionedCall/while/body/_94/while/MatMul_1", "op": "MatMul", "input": ["StatefulPartitionedCall/sequential/lstm_1/PartitionedCall/while/Func/StatefulPartitionedCall/sequential/lstm_1/PartitionedCall/input/_23_switch/_122:1", "StatefulPartitionedCall/sequential/lstm_1/PartitionedCall/while/Func/StatefulPartitionedCall/sequential/lstm_1/PartitionedCall/input/_26_switch/_127:1", "^StatefulPartitionedCall/sequential/lstm_1/PartitionedCall/while/loop_body_control/_129"], "device": "/device:CPU:0", "attr": {"transpose_a": {"b": false}, "_input_shapes": {"list": {"shape": [{"dim": [{"size": "-23"}, {"size": "32"}]}, {"dim": [{"size": "32"}, {"size": "128"}]}]}}, "T": {"type": "DT_FLOAT"}, "transpose_b": {"b": false}}}, {"name": "StatefulPartitionedCall/sequential/lstm_1/PartitionedCall/while/next_iteration/_148", "op": "NextIteration", "input": ["StatefulPartitionedCall/sequential/lstm_1/PartitionedCall/while/StatefulPartitionedCall/sequential/lstm_1/PartitionedCall/strided_slice_switch/_124:1", "^StatefulPartitionedCall/sequential/lstm_1/PartitionedCall/while/loop_body_control/_129"], "attr": {"T": {"type": "DT_INT32"}}}, {"name": "StatefulPartitionedCall/sequential/lstm_1/PartitionedCall/TensorArrayV2Stack/TensorListStack", "op": "TensorListStack", "input": ["StatefulPartitionedCall/sequential/lstm_1/PartitionedCall/while/exit/_133", "StatefulPartitionedCall/sequential/lstm_1/PartitionedCall/TensorArrayV2Stack/TensorListStack/element_shape"], "attr": {"num_elements": {"i": "1"}, "element_dtype": {"type": "DT_FLOAT"}}}, {"name": "StatefulPartitionedCall/sequential/lstm/PartitionedCall/while/next_iteration/_86", "op": "NextIteration", "input": ["StatefulPartitionedCall/sequential/lstm/PartitionedCall/while/body/_34/while/mul_2", "^StatefulPartitionedCall/sequential/lstm/PartitionedCall/while/loop_body_control/_69"], "attr": {"T": {"type": "DT_FLOAT"}}}, {"name": "StatefulPartitionedCall/sequential/lstm/PartitionedCall/while/body/_34/while/TensorArrayV2Write/TensorListSetItem", "op": "TensorListSetItem", "input": ["StatefulPartitionedCall/sequential/lstm/PartitionedCall/while/StatefulPartitionedCall/sequential/lstm/PartitionedCall/TensorArrayV2_1_switch/_61:1", "Func/StatefulPartitionedCall/sequential/lstm/PartitionedCall/while/body/_34/input/_169", "StatefulPartitionedCall/sequential/lstm/PartitionedCall/while/body/_34/while/mul_2"], "attr": {"element_dtype": {"type": "DT_FLOAT"}, "resize_if_index_out_of_bounds": {"b": false}}, "experimentalType": {"typeId": "TFT_PRODUCT", "args": [{"typeId": "TFT_ARRAY", "args": [{"typeId": "TFT_TENSOR", "args": [{"typeId": "TFT_FLOAT"}]}]}]}}, {"name": "StatefulPartitionedCall/sequential/lstm_1/PartitionedCall/while/body/_94/while/TensorArrayV2Read/TensorListGetItem", "op": "TensorListGetItem", "input": ["StatefulPartitionedCall/sequential/lstm_1/PartitionedCall/while/StatefulPartitionedCall/sequential/lstm_1/PartitionedCall/TensorArrayUnstack/TensorListFromTensor_switch/_125:1", "StatefulPartitionedCall/sequential/lstm_1/PartitionedCall/while/StatefulPartitionedCall/sequential/lstm_1/PartitionedCall/time_switch/_120:1", "StatefulPartitionedCall/sequential/lstm_1/PartitionedCall/while/body/_94/while/TensorArrayV2Read/TensorListGetItem/element_shape"], "attr": {"element_dtype": {"type": "DT_FLOAT"}}}, {"name": "StatefulPartitionedCall/sequential/lstm_1/PartitionedCall/while/body/_94/while/add_2", "op": "AddV2", "input": ["StatefulPartitionedCall/sequential/lstm_1/PartitionedCall/while/StatefulPartitionedCall/sequential/lstm_1/PartitionedCall/time_switch/_120:1", "StatefulPartitionedCall/sequential/lstm_1/PartitionedCall/while/body/_94/while/add_2/y"], "attr": {"T": {"type": "DT_INT32"}}}, {"name": "StatefulPartitionedCall/sequential/lstm_1/PartitionedCall/while/body/_94/while/add_3", "op": "AddV2", "input": ["StatefulPartitionedCall/sequential/lstm_1/PartitionedCall/while/StatefulPartitionedCall/sequential/lstm_1/PartitionedCall/while/loop_counter_switch/_118:1", "StatefulPartitionedCall/sequential/lstm_1/PartitionedCall/while/body/_94/while/add_3/y"], "attr": {"T": {"type": "DT_INT32"}}}, {"name": "StatefulPartitionedCall/sequential/lstm_1/PartitionedCall/strided_slice_2", "op": "StridedSlice", "input": ["StatefulPartitionedCall/sequential/lstm_1/PartitionedCall/TensorArrayV2Stack/TensorListStack", "StatefulPartitionedCall/sequential/lstm_1/PartitionedCall/strided_slice_2/stack", "StatefulPartitionedCall/sequential/lstm_1/PartitionedCall/strided_slice_2/stack_1", "StatefulPartitionedCall/sequential/lstm_1/PartitionedCall/strided_slice_2/stack_2"], "attr": {"shrink_axis_mask": {"i": "1"}, "Index": {"type": "DT_INT32"}, "new_axis_mask": {"i": "0"}, "begin_mask": {"i": "0"}, "end_mask": {"i": "0"}, "T": {"type": "DT_FLOAT"}, "ellipsis_mask": {"i": "0"}}}, {"name": "StatefulPartitionedCall/sequential/lstm/PartitionedCall/while/next_iteration/_85", "op": "NextIteration", "input": ["StatefulPartitionedCall/sequential/lstm/PartitionedCall/while/body/_34/while/TensorArrayV2Write/TensorListSetItem", "^StatefulPartitionedCall/sequential/lstm/PartitionedCall/while/loop_body_control/_69"], "attr": {"T": {"type": "DT_VARIANT"}}}, {"name": "StatefulPartitionedCall/sequential/lstm_1/PartitionedCall/while/body/_94/while/add", "op": "_FusedMatMul", "input": ["StatefulPartitionedCall/sequential/lstm_1/PartitionedCall/while/body/_94/while/TensorArrayV2Read/TensorListGetItem", "StatefulPartitionedCall/sequential/lstm_1/PartitionedCall/while/Func/StatefulPartitionedCall/sequential/lstm_1/PartitionedCall/input/_25_switch/_126:1", "StatefulPartitionedCall/sequential/lstm_1/PartitionedCall/while/body/_94/while/MatMul_1"], "device": "/device:CPU:0", "attr": {"transpose_a": {"b": false}, "_input_shapes": {"list": {"shape": [{"dim": [{"size": "-19"}, {"size": "64"}]}, {"dim": [{"size": "64"}, {"size": "128"}]}]}}, "transpose_b": {"b": false}, "fused_ops": {"list": {"s": ["Qmlhc0FkZA=="]}}, "num_args": {"i": "1"}, "leakyrelu_alpha": {"f": 0.2}, "epsilon": {"f": 0.0}, "T": {"type": "DT_FLOAT"}}}, {"name": "StatefulPartitionedCall/sequential/lstm_1/PartitionedCall/while/next_iteration/_144", "op": "NextIteration", "input": ["StatefulPartitionedCall/sequential/lstm_1/PartitionedCall/while/body/_94/while/add_2", "^StatefulPartitionedCall/sequential/lstm_1/PartitionedCall/while/loop_body_control/_129"], "attr": {"T": {"type": "DT_INT32"}}}, {"name": "StatefulPartitionedCall/sequential/lstm_1/PartitionedCall/while/next_iteration/_142", "op": "NextIteration", "input": ["StatefulPartitionedCall/sequential/lstm_1/PartitionedCall/while/body/_94/while/add_3", "^StatefulPartitionedCall/sequential/lstm_1/PartitionedCall/while/loop_body_control/_129"], "attr": {"T": {"type": "DT_INT32"}}}, {"name": "StatefulPartitionedCall/sequential/dense/Sigmoid", "op": "_FusedMatMul", "input": ["StatefulPartitionedCall/sequential/lstm_1/PartitionedCall/strided_slice_2", "StatefulPartitionedCall/sequential/dense/MatMul/ReadVariableOp", "StatefulPartitionedCall/sequential/dense/BiasAdd/ReadVariableOp"], "device": "/device:CPU:0", "attr": {"transpose_a": {"b": false}, "_input_shapes": {"list": {"shape": [{"dim": [{"size": "-21"}, {"size": "32"}]}, {"dim": [{"size": "32"}, {"size": "1"}]}]}}, "transpose_b": {"b": false}, "fused_ops": {"list": {"s": ["Qmlhc0FkZA==", "U2lnbW9pZA=="]}}, "leakyrelu_alpha": {"f": 0.2}, "num_args": {"i": "1"}, "epsilon": {"f": 0.0}, "T": {"type": "DT_FLOAT"}}}, {"name": "StatefulPartitionedCall/sequential/lstm_1/PartitionedCall/while/body/_94/while/BiasAdd", "op": "BiasAdd", "input": ["StatefulPartitionedCall/sequential/lstm_1/PartitionedCall/while/body/_94/while/add", "StatefulPartitionedCall/sequential/lstm_1/PartitionedCall/while/Func/StatefulPartitionedCall/sequential/lstm_1/PartitionedCall/input/_27_switch/_128:1"], "attr": {"_input_shapes": {"list": {"shape": [{"dim": [{"size": "-24"}, {"size": "128"}]}, {"dim": [{"size": "128"}]}]}}, "T": {"type": "DT_FLOAT"}, "data_format": {"s": "TkhXQw=="}}}, {"name": "Identity", "op": "Identity", "input": ["StatefulPartitionedCall/sequential/dense/Sigmoid"], "attr": {"T": {"type": "DT_FLOAT"}}}, {"name": "StatefulPartitionedCall/sequential/lstm_1/PartitionedCall/while/body/_94/while/split", "op": "Split", "input": ["StatefulPartitionedCall/sequential/lstm_1/PartitionedCall/while/body/_94/while/split/split_dim", "StatefulPartitionedCall/sequential/lstm_1/PartitionedCall/while/body/_94/while/BiasAdd"], "attr": {"num_split": {"i": "4"}, "T": {"type": "DT_FLOAT"}}}, {"name": "StatefulPartitionedCall/sequential/lstm_1/PartitionedCall/while/body/_94/while/Sigmoid", "op": "Sigmoid", "input": ["StatefulPartitionedCall/sequential/lstm_1/PartitionedCall/while/body/_94/while/split"], "attr": {"T": {"type": "DT_FLOAT"}}}, {"name": "StatefulPartitionedCall/sequential/lstm_1/PartitionedCall/while/body/_94/while/Sigmoid_1", "op": "Sigmoid", "input": ["StatefulPartitionedCall/sequential/lstm_1/PartitionedCall/while/body/_94/while/split:1"], "attr": {"T": {"type": "DT_FLOAT"}}}, {"name": "StatefulPartitionedCall/sequential/lstm_1/PartitionedCall/while/body/_94/while/Tanh", "op": "Tanh", "input": ["StatefulPartitionedCall/sequential/lstm_1/PartitionedCall/while/body/_94/while/split:2"], "attr": {"T": {"type": "DT_FLOAT"}}}, {"name": "StatefulPartitionedCall/sequential/lstm_1/PartitionedCall/while/body/_94/while/Sigmoid_2", "op": "Sigmoid", "input": ["StatefulPartitionedCall/sequential/lstm_1/PartitionedCall/while/body/_94/while/split:3"], "attr": {"T": {"type": "DT_FLOAT"}}}, {"name": "StatefulPartitionedCall/sequential/lstm_1/PartitionedCall/while/body/_94/while/mul", "op": "Mul", "input": ["StatefulPartitionedCall/sequential/lstm_1/PartitionedCall/while/body/_94/while/Sigmoid_1", "StatefulPartitionedCall/sequential/lstm_1/PartitionedCall/while/Func/StatefulPartitionedCall/sequential/lstm_1/PartitionedCall/input/_24_switch/_123:1"], "attr": {"T": {"type": "DT_FLOAT"}}}, {"name": "StatefulPartitionedCall/sequential/lstm_1/PartitionedCall/while/body/_94/while/mul_1", "op": "Mul", "input": ["StatefulPartitionedCall/sequential/lstm_1/PartitionedCall/while/body/_94/while/Sigmoid", "StatefulPartitionedCall/sequential/lstm_1/PartitionedCall/while/body/_94/while/Tanh"], "attr": {"T": {"type": "DT_FLOAT"}}}, {"name": "StatefulPartitionedCall/sequential/lstm_1/PartitionedCall/while/body/_94/while/add_1", "op": "AddV2", "input": ["StatefulPartitionedCall/sequential/lstm_1/PartitionedCall/while/body/_94/while/mul", "StatefulPartitionedCall/sequential/lstm_1/PartitionedCall/while/body/_94/while/mul_1"], "attr": {"T": {"type": "DT_FLOAT"}}}, {"name": "StatefulPartitionedCall/sequential/lstm_1/PartitionedCall/while/next_iteration/_147", "op": "NextIteration", "input": ["StatefulPartitionedCall/sequential/lstm_1/PartitionedCall/while/body/_94/while/add_1", "^StatefulPartitionedCall/sequential/lstm_1/PartitionedCall/while/loop_body_control/_129"], "attr": {"T": {"type": "DT_FLOAT"}}}, {"name": "StatefulPartitionedCall/sequential/lstm_1/PartitionedCall/while/body/_94/while/Tanh_1", "op": "Tanh", "input": ["StatefulPartitionedCall/sequential/lstm_1/PartitionedCall/while/body/_94/while/add_1"], "attr": {"T": {"type": "DT_FLOAT"}}}, {"name": "StatefulPartitionedCall/sequential/lstm_1/PartitionedCall/while/body/_94/while/mul_2", "op": "Mul", "input": ["StatefulPartitionedCall/sequential/lstm_1/PartitionedCall/while/body/_94/while/Sigmoid_2", "StatefulPartitionedCall/sequential/lstm_1/PartitionedCall/while/body/_94/while/Tanh_1"], "attr": {"T": {"type": "DT_FLOAT"}}}, {"name": "StatefulPartitionedCall/sequential/lstm_1/PartitionedCall/while/next_iteration/_146", "op": "NextIteration", "input": ["StatefulPartitionedCall/sequential/lstm_1/PartitionedCall/while/body/_94/while/mul_2", "^StatefulPartitionedCall/sequential/lstm_1/PartitionedCall/while/loop_body_control/_129"], "attr": {"T": {"type": "DT_FLOAT"}}}, {"name": "StatefulPartitionedCall/sequential/lstm_1/PartitionedCall/while/body/_94/while/TensorArrayV2Write/TensorListSetItem", "op": "TensorListSetItem", "input": ["StatefulPartitionedCall/sequential/lstm_1/PartitionedCall/while/StatefulPartitionedCall/sequential/lstm_1/PartitionedCall/TensorArrayV2_1_switch/_121:1", "StatefulPartitionedCall/sequential/lstm_1/PartitionedCall/while/body/_94/while/TensorArrayV2Write/TensorListSetItem/index", "StatefulPartitionedCall/sequential/lstm_1/PartitionedCall/while/body/_94/while/mul_2"], "attr": {"element_dtype": {"type": "DT_FLOAT"}, "resize_if_index_out_of_bounds": {"b": false}}, "experimentalType": {"typeId": "TFT_PRODUCT", "args": [{"typeId": "TFT_ARRAY", "args": [{"typeId": "TFT_TENSOR", "args": [{"typeId": "TFT_FLOAT"}]}]}]}}, {"name": "StatefulPartitionedCall/sequential/lstm_1/PartitionedCall/while/next_iteration/_145", "op": "NextIteration", "input": ["StatefulPartitionedCall/sequential/lstm_1/PartitionedCall/while/body/_94/while/TensorArrayV2Write/TensorListSetItem", "^StatefulPartitionedCall/sequential/lstm_1/PartitionedCall/while/loop_body_control/_129"], "attr": {"T": {"type": "DT_VARIANT"}}}], "library": {}, "versions": {"producer": 1645}}, "weightsManifest": [{"paths": ["group1-shard1of1.bin"], "weights": [{"name": "StatefulPartitionedCall/sequential/lstm_1/PartitionedCall/TensorArrayV2_1/element_shape", "shape": [2], "dtype": "int32"}, {"name": "StatefulPartitionedCall/sequential/lstm_1/PartitionedCall/TensorArrayV2_1/num_elements", "shape": [], "dtype": "int32"}, {"name": "StatefulPartitionedCall/sequential/lstm_1/zeros_1/packed/1", "shape": [], "dtype": "int32"}, {"name": "StatefulPartitionedCall/sequential/lstm_1/zeros_1/Const", "shape": [], "dtype": "float32"}, {"name": "StatefulPartitionedCall/sequential/lstm_1/PartitionedCall/TensorArrayUnstack/TensorListFromTensor/element_shape", "shape": [2], "dtype": "int32"}, {"name": "StatefulPartitionedCall/sequential/lstm_1/Read/ReadVariableOp", "shape": [64, 128], "dtype": "float32"}, {"name": "StatefulPartitionedCall/sequential/lstm/PartitionedCall/transpose_1/perm", "shape": [3], "dtype": "int32"}, {"name": "StatefulPartitionedCall/sequential/lstm_1/strided_slice/stack", "shape": [1], "dtype": "int32"}, {"name": "StatefulPartitionedCall/sequential/lstm_1/strided_slice/stack_1", "shape": [1], "dtype": "int32"}, {"name": "StatefulPartitionedCall/sequential/lstm_1/strided_slice/stack_2", "shape": [1], "dtype": "int32"}, {"name": "StatefulPartitionedCall/sequential/lstm_1/zeros/packed/1", "shape": [], "dtype": "int32"}, {"name": "StatefulPartitionedCall/sequential/lstm_1/zeros/Const", "shape": [], "dtype": "float32"}, {"name": "StatefulPartitionedCall/sequential/lstm_1/Read_1/ReadVariableOp", "shape": [32, 128], "dtype": "float32"}, {"name": "StatefulPartitionedCall/sequential/lstm_1/Read_2/ReadVariableOp", "shape": [128], "dtype": "float32"}, {"name": "StatefulPartitionedCall/sequential/lstm_1/PartitionedCall/time", "shape": [], "dtype": "int32"}, {"name": "StatefulPartitionedCall/sequential/lstm/PartitionedCall/TensorArrayV2_1/element_shape", "shape": [2], "dtype": "int32"}, {"name": "StatefulPartitionedCall/sequential/lstm/zeros_1/packed/1", "shape": [], "dtype": "int32"}, {"name": "StatefulPartitionedCall/sequential/lstm/zeros_1/Const", "shape": [], "dtype": "float32"}, {"name": "StatefulPartitionedCall/sequential/lstm/PartitionedCall/TensorArrayUnstack/TensorListFromTensor/element_shape", "shape": [2], "dtype": "int32"}, {"name": "StatefulPartitionedCall/sequential/lstm/Read/ReadVariableOp", "shape": [1, 256], "dtype": "float32"}, {"name": "StatefulPartitionedCall/sequential/lstm/strided_slice/stack", "shape": [1], "dtype": "int32"}, {"name": "StatefulPartitionedCall/sequential/lstm/strided_slice/stack_1", "shape": [1], "dtype": "int32"}, {"name": "StatefulPartitionedCall/sequential/lstm/strided_slice/stack_2", "shape": [1], "dtype": "int32"}, {"name": "StatefulPartitionedCall/sequential/lstm/zeros/packed/1", "shape": [], "dtype": "int32"}, {"name": "StatefulPartitionedCall/sequential/lstm/zeros/Const", "shape": [], "dtype": "float32"}, {"name": "StatefulPartitionedCall/sequential/lstm/Read_1/ReadVariableOp", "shape": [64, 256], "dtype": "float32"}, {"name": "StatefulPartitionedCall/sequential/lstm/Read_2/ReadVariableOp", "shape": [256], "dtype": "float32"}, {"name": "StatefulPartitionedCall/sequential/lstm/PartitionedCall/time", "shape": [], "dtype": "int32"}, {"name": "StatefulPartitionedCall/sequential/lstm/PartitionedCall/transpose/perm", "shape": [3], "dtype": "int32"}, {"name": "StatefulPartitionedCall/sequential/lstm/PartitionedCall/strided_slice/stack", "shape": [1], "dtype": "int32"}, {"name": "StatefulPartitionedCall/sequential/lstm/PartitionedCall/strided_slice/stack_1", "shape": [1], "dtype": "int32"}, {"name": "StatefulPartitionedCall/sequential/lstm/PartitionedCall/strided_slice/stack_2", "shape": [1], "dtype": "int32"}, {"name": "StatefulPartitionedCall/sequential/lstm/PartitionedCall/while/loop_counter", "shape": [], "dtype": "int32"}, {"name": "StatefulPartitionedCall/sequential/lstm/PartitionedCall/TensorArrayV2Stack/TensorListStack/element_shape", "shape": [2], "dtype": "int32"}, {"name": "StatefulPartitionedCall/sequential/lstm_1/PartitionedCall/strided_slice/stack", "shape": [1], "dtype": "int32"}, {"name": "StatefulPartitionedCall/sequential/lstm_1/PartitionedCall/strided_slice/stack_1", "shape": [1], "dtype": "int32"}, {"name": "StatefulPartitionedCall/sequential/lstm_1/PartitionedCall/strided_slice/stack_2", "shape": [1], "dtype": "int32"}, {"name": "StatefulPartitionedCall/sequential/lstm_1/PartitionedCall/while/loop_counter", "shape": [], "dtype": "int32"}, {"name": "StatefulPartitionedCall/sequential/lstm_1/PartitionedCall/TensorArrayV2Stack/TensorListStack/element_shape", "shape": [2], "dtype": "int32"}, {"name": "StatefulPartitionedCall/sequential/lstm_1/PartitionedCall/strided_slice_2/stack", "shape": [1], "dtype": "int32"}, {"name": "StatefulPartitionedCall/sequential/lstm_1/PartitionedCall/strided_slice_2/stack_1", "shape": [1], "dtype": "int32"}, {"name": "StatefulPartitionedCall/sequential/lstm_1/PartitionedCall/strided_slice_2/stack_2", "shape": [1], "dtype": "int32"}, {"name": "StatefulPartitionedCall/sequential/dense/MatMul/ReadVariableOp", "shape": [32, 1], "dtype": "float32"}, {"name": "StatefulPartitionedCall/sequential/dense/BiasAdd/ReadVariableOp", "shape": [1], "dtype": "float32"}, {"name": "StatefulPartitionedCall/sequential/lstm/PartitionedCall/while/body/_34/while/split/split_dim", "shape": [], "dtype": "int32"}, {"name": "StatefulPartitionedCall/sequential/lstm/PartitionedCall/while/body/_34/while/TensorArrayV2Read/TensorListGetItem/element_shape", "shape": [2], "dtype": "int32"}, {"name": "StatefulPartitionedCall/sequential/lstm/PartitionedCall/while/body/_34/while/add_2/y", "shape": [], "dtype": "int32"}, {"name": "StatefulPartitionedCall/sequential/lstm/PartitionedCall/while/body/_34/while/add_3/y", "shape": [], "dtype": "int32"}, {"name": "StatefulPartitionedCall/sequential/lstm_1/PartitionedCall/while/body/_94/while/TensorArrayV2Write/TensorListSetItem/index", "shape": [], "dtype": "int32"}, {"name": "StatefulPartitionedCall/sequential/lstm_1/PartitionedCall/while/body/_94/while/split/split_dim", "shape": [], "dtype": "int32"}, {"name": "StatefulPartitionedCall/sequential/lstm_1/PartitionedCall/while/body/_94/while/TensorArrayV2Read/TensorListGetItem/element_shape", "shape": [2], "dtype": "int32"}, {"name": "StatefulPartitionedCall/sequential/lstm_1/PartitionedCall/while/body/_94/while/add_2/y", "shape": [], "dtype": "int32"}, {"name": "StatefulPartitionedCall/sequential/lstm_1/PartitionedCall/while/body/_94/while/add_3/y", "shape": [], "dtype": "int32"}]}]}